Data/641e-3Linearmodel_params.pkl (torch, 8780 bytes, 8 tensors)

linear.0.weight f4 [20, 39]
0	0x3d8df706	0.069318816
1	0x3e28990d	0.16464634
2	0xbcef413b	-0.029205909
3	0x3ca9f344	0.02074588
4	0x3d9a8470	0.07544792
5	0xbcbe747f	-0.023248909
6	0xb800a808	-3.067407e-05
7	0x3cb213f6	0.021738034
8	0x3d6c091c	0.057625875
9	0x3e153ba6	0.14573535
10	0xbe03a919	-0.12857474
11	0x3da5ebb0	0.081015944
12	0xbd049009	-0.032363925
13	0xbd9fd14f	-0.07803594
14	0xbd118687	-0.035528686
15	0x3d09b4b8	0.033619612
16	0x3e35e032	0.17761305
17	0xbe5305fa	-0.20607749
18	0x3ed340a2	0.41260248
19	0xbe91cb26	-0.28475302
20	0x3d9d542a	0.07682069
21	0x3dd7abb0	0.10530794
22	0x3c88dab0	0.01670584
23	0xbe993e8d	-0.29930535
24	0x3eaf6eba	0.34264165
25	0xbeb9522d	-0.36195508
26	0x3ed061fc	0.40699756
27	0x3eaa4acc	0.3326019
28	0xbf265e84	-0.6498797
29	0x3e585b57	0.21128593
30	0xbd37613e	-0.04477047
31	0x3eb38e1e	0.35069364
32	0xbe8bd93b	-0.2731417
33	0xbe887898	-0.26654506
34	0x3ece2e56	0.40269727
35	0xbce08a70	-0.027409762
36	0x3e177415	0.14790376
37	0x3e51843f	0.20460604
38	0x3dd64475	0.10462276
39	0x3df460e5	0.11932544
40	0x3c4b2a3e	0.012400208
41	0x3e11f961	0.14255287
42	0x3d36f8a2	0.04467071
43	0xbd71e07c	-0.059051976
44	0x3cd00d59	0.02539699
45	0xbe19481b	-0.14968912
46	0xbd8a35b7	-0.067485265
47	0x3d9c7ffd	0.07641599
48	0x3e642b38	0.22282112
49	0x3d890c46	0.06691794
50	0x3e187080	0.14886665
51	0x3e44626b	0.19178168
52	0xbdba9114	-0.09109703
53	0xbe106258	-0.14100015
54	0xbd164c67	-0.036693957
55	0x3e8b4617	0.27201912
56	0xbe072aea	-0.13199964
57	0x3ea6a06e	0.32544273
58	0xbed4d7dc	-0.41570938
59	0x3caee148	0.021347657
60	0x3dee9794	0.11650005
61	0xbcbac0f0	-0.022797078
62	0xbee421ed	-0.44557133
63	0x3ec169c1	0.37775996
64	0xbe5f0044	-0.21777445
65	0x3e800b8e	0.25008816
66	0x3efdd0ed	0.4957346
67	0xbed7ddae	-0.42161316
68	0x3dcefb64	0.10106543
69	0x3d14367d	0.036184777
70	0x3e29e995	0.1659301
71	0xbe65b181	-0.22430994
72	0xbe93e3ac	-0.28884637
73	0x3ee5647f	0.44803235
74	0x3e82b2f2	0.2552715
75	0x3e0c6793	0.13711385
76	0x3e42092b	0.1894881
77	0xbdc66486	-0.09687142
78	0x3e3ba3ed	0.18324251
79	0xbd79337e	-0.060840122
80	0xbd07a87d	-0.033119667
81	0xbcc1d4dc	-0.02366107
82	0x3da80dde	0.0820577
83	0x3cecea55	0.028920332
84	0x3da955a3	0.08268287
85	0x3d5727dc	0.052528247
86	0xbdadd035	-0.08486978
87	0xbd0c7321	-0.034289483
88	0x3e85ad0c	0.26108587
89	0xbbd695bc	-0.0065486114
90	0xbc1b8098	-0.009491108
91	0x3e88ddec	0.26731813
92	0x3e604f1b	0.21905176
93	0x3db1a807	0.08674627
94	0xb8c24ba0	-9.264727e-05
95	0x3e617f19	0.2202114
96	0xbeb05a82	-0.34444052
97	0x3ec86585	0.39139953
98	0x3da334a6	0.07969026
99	0x3e2310b8	0.15924346
100	0x3d830fac	0.063994735
101	0x3eca1ca4	0.39474976
102	0xbedaedc6	-0.42759532
103	0x3eefe778	0.46856284
104	0x3c45cac6	0.012072271
105	0xbf0b727d	-0.5447157
106	0x3eff4b7d	0.4986228
107	0xbc9cf1b5	-0.019158224
108	0x3e3145af	0.17311738
109	0xbe83da20	-0.25752354
110	0x3ea46aba	0.32112676
111	0x3e3b6381	0.18299676
112	0xbe1c9dce	-0.15294573
113	0x3e08c2ed	0.13355608
114	0x3dda4e92	0.10659517
115	0xbcdfc7d8	-0.027316973
116	0x3d9375e8	0.07200223
117	0x3e931656	0.28727978
118	0x3cd8950b	0.026438257
119	0x3e8b4b55	0.2720591
120	0x3e5ee69d	0.2176766
121	0x3e83374d	0.2562813
122	0x3daf4809	0.085586615
123	0x3dc2087d	0.09474275
124	0x3e233d87	0.1594144
125	0x3e97e732	0.29668576
126	0x3d9cbe82	0.07653524
127	0x3ea95b46	0.3307745
128	0x3d62ec20	0.055400968
129	0x3e564f6f	0.20928739
130	0x3e827ebf	0.25487325
131	0x3e924674	0.28569376
132	0xbcbfa5b7	-0.023394449
133	0xbd917bcf	-0.07103693
134	0x3e21d430	0.158036
135	0xbcd5d7d7	-0.026103897
136	0x3e4a9ebd	0.19787116
137	0xbd216444	-0.03940226
138	0xbc79c980	-0.015245795
139	0xbda6c489	-0.08142955
140	0x3f0366dc	0.51328826
141	0xbe689342	-0.22712424
142	0x3eac885f	0.33697793
143	0x3d286513	0.041112017
144	0xbdb47888	-0.08812052
145	0x3ebdc90c	0.3706745
146	0x3e044dde	0.12920329
147	0x3dc2ed70	0.09517944
148	0xbe9e6eb8	-0.30943847
149	0x3e633505	0.22188194
150	0x3db0aae9	0.086263485
151	0xbe080828	-0.13284361
152	0x3a808f30	0.0009808298
153	0xbce40604	-0.0278349
154	0x3d39a87f	0.045326706
155	0x3eb7b181	0.35877612
156	0xbcc498d5	-0.023998657
157	0x3e566390	0.20936418
158	0x3e56eebd	0.20989509
159	0x3debb6a2	0.11509444
160	0xbd18955b	-0.03725181
161	0x3d4978b4	0.049187377
162	0x3e414f98	0.18878019
163	0x3d00348a	0.031300105
164	0x3c6d3ffe	0.014480589
165	0x3ec1b888	0.378361
166	0xbd1b00d8	-0.0378426
167	0x3d9a6880	0.07539463
168	0x3e2b9873	0.16757374
169	0x3dc88bd1	0.09792293
170	0xbddad073	-0.1068429
171	0x3e3225eb	0.17397277
172	0x3db1a269	0.086735554
173	0xbe14c7b7	-0.1452931
174	0x3ee4daae	0.4469809
175	0xbeff533f	-0.498682
176	0x3cb9e0b8	0.022690162
177	0x3dc17c20	0.09447503
178	0xbd59377c	-0.05303143
179	0xbf05235e	-0.5200709
180	0x3ea946e3	0.33061895
181	0xbddcb8ba	-0.10777421
182	0x3dabd1ee	0.0838965
183	0x3eec37ad	0.46136227
184	0xbebaf269	-0.3651307
185	0x3dfe3d2e	0.12414013
186	0xbdecd70a	-0.11564453
187	0x3e8c6301	0.27419284
188	0xbddc4c4d	-0.10756741
189	0xbe5f9ece	-0.21837923
190	0x3ddf77e0	0.10911536
191	0x3e84a9be	0.25910753
192	0x3e6b8a4a	0.23001972
193	0x3dc44e54	0.095852524
194	0x3e89eaba	0.26936895
195	0x3dfe6c52	0.12423004
196	0x3e3fcbba	0.1873006
197	0x3da8e674	0.082470804
198	0x3e8ecc35	0.27890173
199	0x3e9c6c1f	0.3055124
200	0x3e8f0aa0	0.27937794
201	0x3da854c1	0.082192905
202	0x3e621ffe	0.22082517
203	0x3e6a5da7	0.22887288
204	0x3e314808	0.17312634
205	0xbe2f5bd2	-0.1712487
206	0x3e533c1c	0.20628399
207	0x3e7045ec	0.23464173
208	0x3e8ff118	0.28113627
209	0x3daddb19	0.08489055
210	0xbd5dd9b7	-0.054162707
211	0x3e86c79a	0.2632416
212	0xbe0e854c	-0.13918036
213	0x3ea8aad9	0.32942846
214	0xbea81f92	-0.32836586
215	0x3d8d9e86	0.069150016
216	0x3dcde05c	0.10052559
217	0x3d40f70c	0.047110602
218	0xbee1aab0	-0.44075537
219	0x3e9ee897	0.31036827
220	0xbd618ae9	-0.055064116
221	0x3ed0e1e3	0.40797338
222	0x3edec2e4	0.43508065
223	0xbf199bb3	-0.60003203
224	0x3e34f041	0.17669775
225	0x3e10521e	0.14093825
226	0x3e040142	0.12891105
227	0xbebbfb86	-0.36715335
228	0xbe6e1545	-0.23250301
229	0x3e8ed815	0.27899233
230	0x3eb04ca6	0.34433478
231	0x3ea0dff2	0.31420857
232	0x3ea455b5	0.3209664
233	0x3ea539a6	0.32270545
234	0x3e320cf6	0.17387757
235	0x3e570516	0.20998034
236	0x3dd138dd	0.10215924
237	0xbcb90c0d	-0.022588754
238	0x3e36275f	0.17788456
239	0xbce0b802	-0.027431492
240	0x3e8f61e1	0.28004363
241	0xbcc25868	-0.023723796
242	0xbddefe29	-0.10888321
243	0xbcc0b5ff	-0.023524283
244	0x3eb6c222	0.35694987
245	0xbd2dc02c	-0.042419598
246	0xbcfc324f	-0.030785708
247	0x3cdd85ea	0.027041394
248	0x3e8c1df2	0.27366596
249	0x3d8db77e	0.06919764
250	0x3c9dcc37	0.019262416
251	0xbc4f77aa	-0.0126628075
252	0xbec906da	-0.3926304
253	0x3ed61fb1	0.41821054
254	0x3d8a15e4	0.067424566
255	0x3de7f328	0.11325675

linear.0.bias f4 [20]
0	0x3e3b3fe5	0.18286093
1	0x3e4c2119	0.19934501
2	0xbcfe07e4	-0.031009622
3	0x3e4dee4a	0.20110431
4	0x3e03c0c1	0.12866499
5	0x3ee27502	0.44229895
6	0x3e221154	0.15826923
7	0x3e61a2ec	0.22034806
8	0x3e02b004	0.12762457
9	0x3da3ac30	0.079918265
10	0x3db3e14a	0.08783205
11	0x3a4e3aa3	0.0007867014
12	0xbdb8223a	-0.08990903
13	0xbdc9d266	-0.098545834
14	0x3e2a7943	0.1664782
15	0xbd6a3025	-0.05717482
16	0xbe43e4c9	-0.19130243
17	0x3e43a9a7	0.19107686
18	0x3df3e4bd	0.11908863
19	0x3e3c118b	0.18366067

linear.2.weight f4 [15, 20]
0	0xbf0066e0	-0.50156975
1	0xbebb5d60	-0.36594677
2	0x3f0e3ad0	0.5555849
3	0x3ea34d51	0.31894925
4	0xbea5ed6c	-0.324077
5	0x3c9880e0	0.01861614
6	0x3e1ba1df	0.15198468
7	0xbd36e376	-0.044650517
8	0xbd1afe87	-0.037840392
9	0x3e771d1a	0.24132195
10	0x3f063dc3	0.5243799
11	0x3e8ad78e	0.2711758
12	0x3effcefa	0.49962598
13	0x3eea7c39	0.457979
14	0xbe6c5b7b	-0.23081772
15	0x3efb135b	0.49038205
16	0x3e717147	0.23578368
17	0xbe984ce2	-0.29746157
18	0x3e8ee598	0.2790954
19	0xbeb0d341	-0.34536174
20	0xbdc4a16e	-0.09601103
21	0xbe471837	-0.19442831
22	0x3e2d4600	0.16921234
23	0xbde5ff64	-0.112303525
24	0xbe15513c	-0.1458177
25	0x3d09b409	0.03361896
26	0x3d4efe21	0.050535325
27	0x3dec407c	0.11535737
28	0x3d5aad60	0.053388
29	0xbe5bf4a6	-0.21480045
30	0x3e615fba	0.22009173
31	0xbe251f91	-0.16125323
32	0xbe5e9d28	-0.21739638
33	0x3da27c58	0.07933873
34	0x3e159521	0.1460767
35	0x3cf8693b	0.030323615
36	0x3d54571a	0.05184088
37	0x3d629e1a	0.05532656
38	0x3d9c15b4	0.07621327
39	0x3c33cc9b	0.010974075
40	0xbf0de289	-0.5542379
41	0xbebb1aac	-0.36543787
42	0x3e162a07	0.1466447
43	0x3e7d9b3e	0.24766251
44	0xbe2f280a	-0.17105117
45	0x3d495948	0.04915741
46	0x3e4bda2b	0.19907443
47	0xbdd55bda	-0.1041791
48	0xbd8f7abc	-0.070058316
49	0x3f02f068	0.5114808
50	0x3ea4b1cc	0.32166898
51	0x3ee22c2a	0.4417432
52	0x3ec17654	0.3778559
53	0x3ee86934	0.45392764
54	0xbea4afd9	-0.3216541
55	0x3ecc2e8b	0.3987926
56	0xbd8106fb	-0.063001595
57	0xbed739d3	-0.42036304
58	0x3d8a965a	0.067669585
59	0xbe41ccd8	-0.18925798
60	0x3f271cc1	0.6527825
61	0x3f343f9c	0.7040956
62	0xbef11fe9	-0.47094658
63	0x3d45f92a	0.048333324
64	0x3e77eecc	0.24212188
65	0x3f0766b8	0.5289111
66	0xbe490d89	-0.1963407
67	0x3ea082c0	0.31349754
68	0x3ec70fbf	0.388792
69	0xbea9a635	-0.33134618
70	0xbe164bca	-0.14677349
71	0xbe6f29f1	-0.23355843
72	0xbe747931	-0.23874356
73	0xbe9d2eea	-0.30699855
74	0x3f051573	0.51985854
75	0xbe7a6c14	-0.24455291
76	0xbc71201d	-0.014717129
77	0x3f0279c2	0.5096704
78	0xbeaf7d15	-0.34275118
79	0x3ef622b2	0.48073345
80	0xbf0c60d0	-0.54835224
81	0xbe4e533c	-0.20148939
82	0x3e4e8d96	0.20171198
83	0x3e598f95	0.21246178
84	0xbeb895c0	-0.3605175
85	0x3dd79926	0.105272576
86	0x3dec11d3	0.11526837
87	0xbe4271ce	-0.18988726
88	0xbdfaac66	-0.12239914
89	0x3edf8807	0.43658468
90	0x3ebf44d2	0.37357193
91	0x3e8cf2e2	0.27529055
92	0x3ef2bf3b	0.47411522
93	0x3f073e1f	0.52829164
94	0xbddb4a63	-0.107075475
95	0x3e731174	0.23737127
96	0xbae31599	-0.0017325162
97	0xbe89ee3a	-0.26939565
98	0x3e308f33	0.17242126
99	0xbec5fb94	-0.386685
100	0xbed6fac7	-0.41988203
101	0xbea0b725	-0.31389728
102	0x3eadca16	0.33943242
103	0x3e347c4e	0.17625543
104	0xbe46a29a	-0.19397965
105	0xbe35912b	-0.17731158
106	0x3ef36385	0.47536865
107	0xbec63066	-0.387088
108	0x3c337536	0.010953238
109	0x3e1045c6	0.14089116
110	0x3e75210e	0.2393839
111	0x3f0de6d1	0.5543032
112	0x3f0b6390	0.54448795
113	0x3e845bc9	0.25851277
114	0xbe37d1b1	-0.17951085
115	0x3ea60448	0.3242514
116	0x3e2ee2e3	0.17078738
117	0xbee47ce2	-0.44626528
118	0x3eda512e	0.4264006
119	0xbe28ffd2	-0.16503838
120	0x3ea8225b	0.3283871
121	0x3f2926f8	0.66075087
122	0xbeb57660	-0.35441875
123	0x3e59d7e2	0.21273759
124	0x3f082751	0.5318499
125	0x3f002c4a	0.5006758
126	0x3af655b4	0.0018793852
127	0x3f01d897	0.50721115
128	0x3dff5a44	0.12468389
129	0xbe6f458b	-0.23366372
130	0xbe978f08	-0.29601312
131	0xbe93a7e9	-0.28839043
132	0xbe235c90	-0.15953279
133	0xbebf2555	-0.3733317
134	0x3f2112fc	0.6291959
135	0xbe9d5ee3	-0.30736455
136	0x3c4e6a98	0.012598656
137	0x3e92759d	0.28605357
138	0xbeb53174	-0.35389292
139	0x3e927b26	0.2860958
140	0xbeb6c2e3	-0.35695562
141	0xbe972d34	-0.29526675
142	0x3ea3aff5	0.31970182
143	0x3eb2cb89	0.3492091
144	0xbdf3e1cb	-0.11908301
145	0xbe61f7da	-0.22067204
146	0x3e478ef9	0.19488133
147	0xbe87f046	-0.26550502
148	0x3d9c9dac	0.07647261
149	0x3ed94aba	0.42439824
150	0x3efcd069	0.49377754
151	0x3ebe6399	0.37185362
152	0x3eff6d8b	0.49888262
153	0x3efa9c10	0.4894719
154	0xbe89928f	-0.26869628
155	0x3eb00b04	0.34383404
156	0xbde2989d	-0.11064265
157	0xbe49ad25	-0.19694956
158	0x3edbc479	0.42923334
159	0xbec86b2a	-0.3914426
160	0x3f0b617d	0.5444563
161	0x3f28af3a	0.65892375
162	0xbe885f36	-0.2663514
163	0x3e76b4bd	0.24092384
164	0x3f0bf15f	0.5466518
165	0x3f0189f6	0.50601137
166	0x3e226148	0.15857422
167	0x3f0e9d92	0.55709183
168	0x3edeaeec	0.4349283
169	0xbe85610c	-0.26050603
170	0xbe426ae7	-0.18986093
171	0xbe68dcc1	-0.22740461
172	0xbea031e0	-0.31288052
173	0xbedacf49	-0.4273627
174	0x3f05553e	0.52083194
175	0xbe65349f	-0.22383355
176	0xbcb36359	-0.021897959
177	0x3ed4b0d2	0.41541153
178	0xbec78b06	-0.38973254
179	0x3f093da7	0.536097
180	0xbf1afb07	-0.6053929
181	0xbdb4ff7a	-0.08837791
182	0x3f00c70d	0.5030373
183	0x3e3d6041	0.18493749
184	0xbdd56958	-0.10420483
185	0xbdf254cc	-0.1183258
186	0x3ec9f71a	0.39446336
187	0xbe424725	-0.18972452
188	0xbe9695f6	-0.29411286
189	0x3e5c4f59	0.21514644
190	0x3f0249bd	0.50893766
191	0x3e6a0154	0.22852069
192	0x3edd7e85	0.4326059
193	0x3e647c26	0.22312984
194	0xbd92352a	-0.071390465
195	0x3e8d9e9c	0.27660072
196	0x3c6af174	0.0143397935
197	0xbe93aabc	-0.28841197
198	0x3eab0cf8	0.33408332
199	0xbef33968	-0.47504735
200	0xbea930bf	-0.33045003
201	0xbed94de5	-0.4244224
202	0x3f03130c	0.5120094
203	0x3e724594	0.23659354
204	0xbedaca4a	-0.4273246
205	0xbe1dc40e	-0.1540682
206	0x3ee39c92	0.4445539
207	0xbe411483	-0.18855481
208	0x3be09bc2	0.0068545053
209	0x3e05d12e	0.13068077
210	0x3e8fda07	0.2809603
211	0x3eea47a7	0.4575779
212	0x3f015bf7	0.5053095
213	0x3e8ade2b	0.27122626
214	0xbe26badc	-0.16282219
215	0x3f081285	0.5315326
216	0xbe1a4b97	-0.15067898
217	0xbe60d3be	-0.21955773
218	0x3ee2d240	0.44301033
219	0xbefd2942	-0.4944554
220	0xbe76dbfe	-0.24107358
221	0xbdb4d2d7	-0.08829277
222	0x3f079184	0.52956414
223	0x3e5707b6	0.20999035
224	0xbe729060	-0.23687887
225	0xbe3a8b1f	-0.18217133
226	0x3e999d64	0.30002892
227	0xbead5cc4	-0.33859837
228	0x3def4ef0	0.11684978
229	0x3ea7cd8b	0.32774004
230	0x3e00b8f9	0.12570561
231	0x3f0297a4	0.51012635
232	0x3ed112cb	0.4083465
233	0x3e3bcb53	0.18339281
234	0xbe3caca3	-0.1842523
235	0x3f15bef0	0.5849447
236	0x3e22d05d	0.15899797
237	0xbe879fdb	-0.26489148
238	0x3e9b64a8	0.30350232
239	0xbec8a952	-0.3919168
240	0x3c7d4270	0.015457734
241	0x3e037fa0	0.12841654
242	0xbe35df44	-0.1776095
243	0xbdd94259	-0.10608358
244	0xbe47861e	-0.19484755
245	0xbd188144	-0.037232652
246	0x3d9bff00	0.07616997
247	0xbd08e0dc	-0.033417568
248	0xbd8c54c4	-0.06852105
249	0xbe0c2542	-0.13686088
250	0x3d56f740	0.05248189
251	0x3e00a1c4	0.12561709
252	0x3c721c50	0.014777258
253	0xbe2e7f78	-0.17040813
254	0x3db47a3c	0.08812377
255	0x3e372e7c	0.17888826

linear.2.bias f4 [15]
0	0xbe46b88f	-0.19406341
1	0xbe3f83d9	-0.1870264
2	0xbd3aaf9c	-0.04557763
3	0x3ef3e40c	0.47634923
4	0xbbc87eff	-0.0061186547
5	0x3dc7d135	0.097567
6	0x3ede75cc	0.43449247
7	0xbdc30d1a	-0.09523983
8	0x3e19ac60	0.15007162
9	0x3c024b1c	0.007952478
10	0x3de7aa8f	0.11311828
11	0x3db6a469	0.089180775
12	0xbdfc004b	-0.123047434
13	0x3d49742e	0.049183063
14	0x3d019ba5	0.031642575

classification.0.weight f4 [10, 15]
0	0xbef40692	-0.47661263
1	0x3e57057b	0.20998184
2	0xbf235dc0	-0.63814926
3	0x3ef76cd5	0.4832522
4	0xbe98da3c	-0.29854
5	0xbf211b4a	-0.62932265
6	0x3f23fce3	0.6405775
7	0xbf1bf624	-0.60922456
8	0x3ecb2af7	0.39681217
9	0xbf07e52f	-0.5308408
10	0xbee6d04d	-0.45080796
11	0xbec189b3	-0.3780037
12	0x3c4da920	0.01255253
13	0xbe8a1db8	-0.269758
14	0x3e73eb0a	0.23820129
15	0xbe9c0280	-0.30470657
16	0xbe455100	-0.1926918
17	0xbe3c23bc	-0.18373007
18	0x3f26ac8c	0.65107036
19	0xbf2413d5	-0.6409276
20	0xbee82266	-0.45338744
21	0x3eddf29d	0.43349162
22	0xbf16ebaf	-0.58953375
23	0x3e703a9a	0.23459855
24	0xbf103219	-0.5632644
25	0xbf08cf99	-0.5344177
26	0xbeac5a51	-0.33662656
27	0xbe17d62c	-0.14827794
28	0xbf1ec136	-0.62013566
29	0xbe1127d6	-0.14175352
30	0xbecb4777	-0.3970296
31	0xbe0547ad	-0.13015623
32	0xbf03de13	-0.51510733
33	0x3f14aad2	0.5807315
34	0xbf433055	-0.76245624
35	0xbec900b2	-0.39258343
36	0x3f0158b3	0.5052597
37	0xbecf9eab	-0.40550742
38	0x3ee361fc	0.44410694
39	0xbec30ecf	-0.38097236
40	0xbe75bedb	-0.23998587
41	0xbe8c9b3a	-0.27462178
42	0xbe355098	-0.17706525
43	0xbf222e83	-0.6335222
44	0xbd88bb3c	-0.06676337
45	0x3f078702	0.5294038
46	0x3e35908d	0.17730923
47	0x3edc5254	0.4303156
48	0xbecdfe38	-0.40233016
49	0x3f005574	0.5013039
50	0x3f155d28	0.5834527
51	0xbf104a54	-0.56363416
52	0x3f11ac99	0.5690399
53	0xbedf5189	-0.43616894
54	0x3f0d4597	0.5518431
55	0x3ec1fe7f	0.37889478
56	0x3ee6f608	0.45109582
57	0xbe81be48	-0.25340486
58	0x3e92e002	0.2868653
59	0x3dfb38c5	0.12266687
60	0xbeeed21f	-0.46644685
61	0xbdc1a8f8	-0.09456056
62	0xbf27c17f	-0.65529627
63	0x3eee5509	0.46549252
64	0xbecabad6	-0.3959567
65	0xbe34eb61	-0.17667915
66	0x3ee18470	0.44046354
67	0xbee91706	-0.45525378
68	0x3f01ea2c	0.5074794
69	0xbee69116	-0.45032567
70	0xbf0aa6cf	-0.5416078
71	0xbf07d82c	-0.5306423
72	0x3decd514	0.11564079
73	0xbee78dad	-0.45225278
74	0xbd06584b	-0.032799046
75	0x3eb3995e	0.35077947
76	0x3e23be64	0.15990597
77	0x3efdf37d	0.4959983
78	0xbf224ba6	-0.6339668
79	0x3f2a806f	0.66602224
80	0x3eb7eb2e	0.35921615
81	0xbf083698	-0.53208303
82	0x3e90a903	0.28253946
83	0xbed5f6e3	-0.41789922
84	0x3f0e89bd	0.5567892
85	0x3f0f78a5	0.56043464
86	0x3ea94f82	0.33068472
87	0xbe209ab0	-0.15684009
88	0x3f040ca7	0.51581806
89	0x3d52e594	0.051488474
90	0x3ee6ff85	0.4511682
91	0xbdda6a80	-0.106648445
92	0x3ecfcbac	0.40585077
93	0xbeceabc3	-0.4036542
94	0x3f2d65fd	0.67733747
95	0x3ee2727b	0.44227967
96	0xbf04594e	-0.5169877
97	0x3f1dd619	0.6165481
98	0xbede8114	-0.43457854
99	0x3e908ab8	0.28230834
100	0x3dcd4404	0.100227386
101	0x3ef9d9a3	0.48798856
102	0x3e578d48	0.21049988
103	0x3f0ec5fc	0.5577085
104	0xbce2d29b	-0.027688315
105	0x3f131061	0.5744687
106	0xbd795d5a	-0.060880043
107	0x3eb89364	0.3604995
108	0xbf2ba039	-0.67041355
109	0x3f2ffe6d	0.687476
110	0x3e9d949b	0.3077744
111	0xbf04183d	-0.51599485
112	0x3f206006	0.6264652
113	0xbee168f3	-0.44025382
114	0x3ef053f2	0.46939045
115	0x3f0b0c74	0.54315877
116	0x3eaf1553	0.34195957
117	0x3d660c98	0.056164354
118	0x3f07abbd	0.52996427
119	0xbdd6a610	-0.10480893
120	0xbe7d7a60	-0.24753714
121	0xbc4661bb	-0.012108262
122	0xbefbfdba	-0.49217016
123	0x3f298a9d	0.6622713
124	0xbecf91aa	-0.4054082
125	0xbefeecdb	-0.4979008
126	0x3eec541a	0.46157914
127	0xbf1287be	-0.57238376
128	0x3ed63b29	0.4184201
129	0xbec49243	-0.3839284
130	0xbef80435	-0.4844071
131	0xbe404ffc	-0.18780512
132	0x3e00796e	0.12546322
133	0xbf1dc817	-0.6163344
134	0xbe75bdb5	-0.23998149
135	0x3eeca286	0.46217746
136	0xbe57049a	-0.20997849
137	0x3f0b739f	0.544733
138	0xbea7432a	-0.3266843
139	0x3f0e6266	0.55618894
140	0x3f08e029	0.5346704
141	0xbf266049	-0.6499067
142	0x3ed0c7f5	0.40777555
143	0xbefb1fe8	-0.4904778
144	0x3f0d19c4	0.5511744
145	0x3ea9f188	0.33192086
146	0x3f183ea1	0.59470564
147	0x3e25babe	0.16184518
148	0x3e724095	0.23657449
149	0x3e6293a6	0.22126636

classification.0.bias f4 [10]
0	0x3e06c99a	0.13162842
1	0x3f0e0919	0.5548263
2	0x3e28de33	0.16491012
3	0xbe4e9f16	-0.20177874
4	0x3ea8ccc6	0.3296873
5	0xbdcc1378	-0.09964651
6	0xbe933b7d	-0.28756323
7	0xbebaf58d	-0.36515465
8	0xbb994ba6	-0.0046782074
9	0xbd2a70ae	-0.041611366

classification.2.weight f4 [2, 10]
0	0x3f55277a	0.8326336
1	0x3f5e6995	0.86879855
2	0x3f3ef827	0.745974
3	0xbf420aa8	-0.7579751
4	0x3f658d58	0.896688
5	0xbf4eafb6	-0.80736864
6	0xbf7b287e	-0.9810866
7	0xbefa8e59	-0.48936728
8	0x3f41c1a7	0.75686115
9	0xbf71a5ad	-0.94393426
10	0xbf0fe201	-0.5620423
11	0xbf11232c	-0.56694293
12	0xbf319304	-0.69364953
13	0x3f5a22de	0.85209453
14	0xbf500741	-0.8126107
15	0x3f41b40e	0.75665367
16	0x3f4ea423	0.807192
17	0x3f659d5b	0.8969323
18	0xbf7cb4e8	-0.9871354
19	0x3f538975	0.8263162

classification.2.bias f4 [2]
0	0x3d9d25a3	0.07673194
1	0xbe919b91	-0.28439
