Data/641e-3Trmmodel_params.pkl (torch, 270506 bytes, 20 tensors)

linear.0.weight f4 [20, 39]
00000000: 0755 ccbd 4cf0 bdbc 5a0c 9cbb df29 06be
00000010: fd2d 893d d18d cfbc 0b3f a43d 3dd7 e8bd
00000020: 686f dcbc 6db6 333d 883e 813c d54d cb3d
00000030: 14ab dcbc 712f 993d 4593 b2bc 4dfc dabd
00000040: 95eb 573d 6c9a e6bd 395c 033d 9f4e 25bd
00000050: 2bf7 c1bd 6215 1d3e 7a59 4abd 79f9 1a3e
00000060: 87e0 a8bd 43d7 333d 704c 833d fca6 5dbc
00000070: 52fc d43d 6a65 ae3c 4010 0abe 625e 863c
00000080: 71c0 f83d 15d9 4abd 72c8 8c3d 8de7 ebbd
00000090: d6eb f7bd 0b04 3dbd 854a a3bd e210 2e3e
000000a0: b9c4 723d 5bf1 94bb 4d77 f5bd 17c8 26bd
000000b0: 9f16 e2bd 9ea2 0b3e 9933 3bbd 0b1d 79bd
000000c0: 3969 9b3c 5325 103e b231 ddbc 7b67 113d
000000d0: b0d8 8b3d 4a0b 7c3d 8155 573d fa6f 843d
000000e0: 7dde 9d3d e34a edbb b8f0 243e 9e26 1f3e
000000f0: 8056 133c 1083 023e afdf 993b 4ead 1bbd
00000100: f52e 843d 6642 28be 9260 4abe 0f17 8c3e
00000110: c1c1 cd3d b974 cb3d d2e4 853c 17bf ed3b
00000120: a6ae 0d3e 2143 24be e01a 06be 6e41 1abd
00000130: ebc7 9a3d 20d4 0bbb 3e0b 8c3c de13 313e
00000140: cdf7 7cbb 9217 ebbc d365 d43c ef92 c23c
00000150: 3bde e03c a305 1c3b 0fac 103e 90b0 d43d
00000160: e746 b13d ad50 d7bd 9bb1 203c 0989 00be
00000170: 63bb 983d 5ad3 18be 4cf1 c93d 46b4 303e
00000180: 20a9 02be 8766 f63c bfb1 04be 8c1c 1d3e
00000190: 70ac 9d3c caa4 05be a173 1abe dcdf cd3d
000001a0: f164 c0bc 31d0 20be 6315 313e db24 17be
000001b0: 1de8 1e3e ffff ab3c a130 a73c 84ff 8fbd
000001c0: 2c2f 1f3d 990f b03d 7581 e0bd 4aad 2ebe
000001d0: 055b c7bd f2f0 213d a339 253d 0756 013e
000001e0: 0d40 4fbb 20b7 14be 1bbf f23d 2b58 c23d
000001f0: a7b5 c9bd 2396 a2bd 4753 5cbd fd5e b2bc
00000200: 3d61 26be 613a 8abd a349 153d 5319 27bd
00000210: fa84 1f3e 2b80 8d3c 333a 0d3e 5076 bdbd
00000220: 6fa6 4abd 7104 a4bd 2206 9cbd 2c85 b63d
00000230: 5b64 153d bc8c 00be 0f32 bebd 0a55 0a3e
00000240: 15ef 23be 44e8 463a 2c1e 1b3e 27e8 c1bd
00000250: 7a47 113d f234 fc3d e532 c5bd d645 a13c
00000260: 1874 37be 3e7a b13d 3372 c8bd 4cf0 11be
00000270: 212a 95bd bf8e 05be 7e36 e9bd 9722 173d
00000280: 44ea e13d edbe 15be 0db4 173e 483a a73d
00000290: cf20 463c 1e4a 70bc 3ba7 863d 8bbf 0dbd
000002a0: e340 cb3d f5a1 ccbc 91b1 adbc 1d68 813d
000002b0: 3c29 c7bd 64c0 803d 37df eabb 0fdd 4e3e
000002c0: e012 c03d 9437 01be 8456 183e cb02 dabc
000002d0: a426 9cbc 7acb 70bd 4add 363d dadf 153e
000002e0: cc26 1d3e db4f d23c a3cd 25be d69e 103c
000002f0: 1700 fa3d 1411 163c 0d8c df3c 1741 36be
00000300: df13 d0bd e560 e1bd 17db 1bbc 78aa 38bd
00000310: 4888 933d 5976 9e3b 3a04 c3bc a5fb 103e
00000320: f714 ed3d e5be b8bd 2117 04be 8f0c 7d3c
00000330: f7a4 f03d 3e60 f0bc 2ea0 2c3d 47b8 ef3d
00000340: a357 013d f5c4 303d fd57 843d 9fdf 8f3d
00000350: a026 bc3d 914d d4bd 5e16 4e3e 10eb f73d
00000360: fc41 b83d 180b 0abd 9848 853e e51d 263d
00000370: 0d75 34bd 3828 11be 7c41 23be f703 9abc
00000380: baab e339 b1c8 443e b847 7abd f7d5 823e
00000390: 03dd ef3d 43d6 13be 316f b9bd 90c5 c83b
000003a0: f723 8fbd 555c 11be 361e 9a3d d2ef 373d
000003b0: ba64 98bd 8ea9 fbbd a34c 033c 3c45 02bc
000003c0: 1c7c 20bd abb5 1e3e 4bed 1c3d be81 acbc
000003d0: 028a d1bd 350c a5bb 8a61 ec3d d782 6abd
000003e0: 73db f0bd 33b7 05be efd2 ba3d 7610 dd3d
000003f0: ca24 8cbd 1cc5 5d3e d022 113e 3888 cd3c
-0.09977155 -0.023185872 -0.0047622146 -0.1310191 0.06698225 -0.025336178 0.08019837 -0.113691784
-0.026908591 0.043875147 0.015776888 0.09926955 -0.026937045 0.07479752 -0.02179874 -0.10692654
0.052714903 -0.112599224 0.032070372 -0.040358182 -0.09470972 0.15340188 -0.049401738 0.15134229
-0.0824595 0.04390646 0.06411064 -0.013528582 0.10399689 0.021288592 -0.13482761 0.016402427
0.1214608 -0.04952343 0.068741694 -0.11518774 -0.12105529 -0.046146434 -0.07973198 0.16998628
0.05926964 -0.0045453734 -0.119856454 -0.040718164 -0.11039471 0.13636252 -0.045703504 -0.060818713
0.018971073 0.14076738 -0.027001236 0.035499077 0.06828439 0.061534204 0.052571777 0.0646667
0.07708452 -0.007241593 0.16107452 0.15542075 0.008992791 0.12745309 0.0046958546 -0.038007073
0.06454269 -0.16431579 -0.19763401 0.27361342 0.10046721 0.099343725 0.016344462 0.0072554457
0.13836154 -0.16041233 -0.1309619 -0.037660055 0.075576626 -0.0021336153 0.017095204 0.17292735
-0.003859985 -0.028697763 0.02592746 0.023751704 0.027449718 0.002380707 0.14128135 0.10385239
0.08656102 -0.105134346 0.009807969 -0.12552275 0.07457616 -0.14924374 0.09860477 0.17256269
-0.12759829 0.030078186 -0.1295843 0.15342921 0.019247264 -0.13051143 -0.15083171 0.100524634
-0.023485633 -0.15704419 0.17293315 -0.14760153 0.15518232 0.020996092 0.02040893 -0.070311576
0.038863346 0.08596725 -0.10962192 -0.17058292 -0.097341575 0.039536424 0.04033817 0.12630473
-0.003162387 -0.14522982 0.11852857 0.09489473 -0.098491006 -0.079387926 -0.053790357 -0.02177381
-0.16248031 -0.06749416 0.03644718 -0.040795635 0.1557807 0.01727303 0.13791732 -0.09251082
-0.04947513 -0.0800866 -0.07618357 0.08912119 0.03647266 -0.12553686 -0.09286892 0.13509002
-0.16009171 0.0007587711 0.15148228 -0.09468108 0.035468556 0.12314786 -0.09628848 0.01968662
-0.1791538 0.08665894 -0.09787407 -0.14251822 -0.07283426 -0.13042735 -0.11387347 0.03689822
0.11031011 -0.14623614 0.14814778 0.08165413 0.012092783 -0.014666108 0.065748654 -0.034606498
0.099244855 -0.02497957 -0.021202834 0.06318686 -0.09724662 0.062866956 -0.0071677226 0.20201515
0.093786 -0.12618858 0.14876753 -0.02661266 -0.019061394 -0.0587878 0.04464463 0.14636174
0.15346831 0.025672844 -0.16191725 0.008826932 0.122070484 0.009159345 0.027288461 -0.17798267
-0.1016004 -0.11004809 -0.009512684 -0.045084447 0.07203728 0.0048358855 -0.023805726 0.14158495
0.11576264 -0.09020785 -0.12899448 0.015444889 0.117502145 -0.029342767 0.042144947 0.1170507
0.031577718 0.043156583 0.06462095 0.07025074 0.09187055 -0.10366357 0.2012572 0.121053815
0.089969605 -0.033701986 0.26031947 0.040555853 -0.04405694 -0.14175498 -0.15942949 -0.018800719
0.0004342476 0.19217183 -0.061103553 0.25553867 0.117120765 -0.14437203 -0.09054411 0.006127067
-0.069892816 -0.14195378 0.075252935 0.044906445 -0.07441087 -0.12288199 0.008013877 -0.007951077
-0.03918086 0.15498988 0.038312238 -0.02105796 -0.10231401 -0.0050368556 0.115420416 -0.057253685
-0.117606066 -0.13058166 0.09122264 0.10794155 -0.068429545 0.21657223 0.14173436 0.025089368

linear.0.bias f4 [20]
00000000: 421e cdbd 5b6d d63d 2743 643d 4979 b1bd
00000010: 4ac0 55bc 8f92 a13d bd5c 3dbd c8d1 b23d
00000020: 9102 27be b4ab 28bc 1471 37bd 9cf9 fd3d
00000030: 66bc 353d fba5 ba3d 77ee d4ba c8e0 2c3d
00000040: 2e9b 153e 77be 79bd f8de f03d 92d6 003e
-0.10015537 0.10470077 0.055728104 -0.086657114 -0.013046334 0.07889282 -0.04623102 0.08731419
-0.16309573 -0.010294843 -0.044785574 0.12401125 0.044369124 0.091136895 -0.0016245384 0.042206556
0.14609978 -0.060972657 0.11761278 0.12581852

linear.2.weight f4 [15, 20]
00000000: 1300 6fbe 9aa7 2c3e 23a6 3abe ff62 723d
00000010: 1848 8e3d dc8d e03d f1e1 a93c d967 2c3e
00000020: 65d0 eebd 34e7 50be dacb 363d 2c45 2ebe
00000030: 13a3 2e3c 6542 ddbc b3aa bcbc b18d 09bd
00000040: 4ba6 dd3d c99b 50bc b466 693e aa82 22be
00000050: 3224 a6bd fafa 21bc 1067 e6bd bdfa 8f3d
00000060: 0f4c 10be e68d 263e 850d 7f3d 4233 3b3e
00000070: 8f54 c93d fcb5 f1bd d9bc 7a3d 12d4 643c
00000080: a15e 61be 75ef 883d 6983 d0bd bde7 80bd
00000090: 4e82 e5bd cf14 2dbe 2d79 4f3e efa9 63be
000000a0: a5b2 7bbd 6c24 a23d 372d 2b3d 3242 333e
000000b0: 163d 2c3e 7a7a 72be f3ca 963e 4cb9 debd
000000c0: c48d 123e a227 0a3e 6539 4bbe c57a 1dbe
000000d0: 5250 09be 01e6 a5bd 14c0 72be 720d 03be
000000e0: 9b53 babd 1a2d 47bd cded 543d 01a1 1b3e
000000f0: f212 baba a3f0 953e 574e 6d3e d8ee 63bc
00000100: 7b8d 653e d3b9 493e 0077 dd3d 69fe 33bb
00000110: 76b1 18be ff35 e83c 0250 07be b959 10be
00000120: cc7f 10be e75c 40be 70de e7bd 17ed bcbd
00000130: 1d30 4a3e 8445 97ba bcf3 833b 0ff2 1e3e
00000140: acf5 073e f348 e8bd 39e2 b2bc 4f9b 3fbe
00000150: 04a3 8bbb 5c16 793d 6f4c 2dbe 0e3e 43be
00000160: c470 973d 38fe 4dbe 14e5 11be 20f5 4ebd
00000170: ca92 4d3d 472b 37be 9969 2f3e 6112 03be
00000180: b968 1c3e 7d45 513e b965 1fbe cd5b c63d
00000190: 9623 553d 3507 2dbe e017 a9bd 0431 2e3e
000001a0: 5592 2e3e 1362 f9bd 6c28 8abe 263f 7c3d
000001b0: 0b8b 2e3b b996 2ebe 923e 243d 5bce b7bd
000001c0: 4bc6 0dbe 3413 6abd 8eed 0f3d 321e 2e3e
000001d0: 13e2 1dbe b260 e6bb c0b4 943e 6ea8 90bd
000001e0: 6317 64be 1b7e 2c39 97b8 573d 684f 0d3e
000001f0: cebd a83d 51e2 633d d854 553d 8398 263e
00000200: 044c 17bd f3ff 7bbe c62f 12be b7c9 bc3b
00000210: 3798 293e f00a a7bd b1b3 5ebe f673 33be
00000220: af20 4cbc 84e6 19bd eae8 0abe 0ce3 70be
00000230: 7a69 84bd a949 723e 4fa0 923d 7399 b6bc
00000240: 4b34 49be 7f2f 2b3e cb33 933e 52af cabd
00000250: e889 663e e306 473e 23ad f33d 0fd4 1b3e
00000260: ea21 5d3e 784c 053e 9c11 c33c e3ce be3c
00000270: 4f83 e9bd edb9 6abd 8399 f9bc 556a 38be
00000280: 6e1c 2d3e 6b01 c63d a031 e23a 7fbd fb3d
00000290: b610 fc3d 4044 6abd 296f 4ebe b96e fcbd
000002a0: 409d 883d 7817 6bbe db1c b3bd d282 5abe
000002b0: 1586 363e 2457 95bd 3ca3 163e f82b d3bc
000002c0: 9d48 823d 587f bfbd 429e ea3d a38e 683d
000002d0: f04d 203e a02d 18be 9ae7 5b3e 0e1a 1c3d
000002e0: d4c1 90bd e160 633e 69b6 34be d3cf 5d3e
000002f0: 96be 763e 83a1 1d3e c33a 4abd 448f 6cbe
00000300: 0833 393e 1acb 01be e0ff 3cbe 46c3 5ebe
00000310: 8b5a 383e 5605 67bd 7c10 8a3c ea5f a63b
00000320: dc31 05bd cfc6 dbbd 70a4 0a3c 009c f03c
00000330: 2c53 a3bd 3265 b5bd 2c51 6abd 0a2d 103e
00000340: c2c0 493e 604b 743c 1851 2b3e 2050 46bc
00000350: 1a4d 37be ec55 08bd e974 1cbe 9c4e 1e3e
00000360: 3c70 2cbd 7a7f 09be b409 5c3e 284d 3fbe
00000370: 6c18 1f3e 877a 71be 6e86 b83c db08 ebbd
00000380: fe98 0dbe 9830 2abe 2777 5d3d 5efc d13c
00000390: 3507 20be f48a 083d cba3 d83d c42d 4ebd
000003a0: a75d 8b3c 0ba1 f5bd ca8d a83c 6716 193e
000003b0: 0884 e3bd 3e03 433e 8bdd 0b3e b09e 3abe
000003c0: 492f 5cbe 2717 153d d061 13bd 525a c3bc
000003d0: db92 b9bd a41a 2abe 4336 09be 7666 a73c
000003e0: 8d83 3d3c aabd 24be 9d2c 353c ece1 853c
000003f0: f587 333e 43f2 b1bc c38a 18bd 0bef 0cbc
-0.23339872 0.1686081 -0.18227439 0.05917644 0.069473445 0.109645575 0.02073762 0.1683649
-0.11660842 -0.20400697 0.044628 -0.17018574 0.010658997 -0.027009198 -0.023030614 -0.033582393
0.108227335 -0.012732455 0.22793084 -0.15870157 -0.081123725 -0.009886498 -0.11250126 0.070302464
-0.14091514 0.16265067 0.062268753 0.18281272 0.098305814 -0.11802289 0.061215255 0.013966577
-0.22008754 0.06686298 -0.101813145 -0.062942006 -0.11206494 -0.16902469 0.20261069 -0.22232793
-0.061449666 0.07917103 0.041791167 0.1750572 0.16820177 -0.23679534 0.29451713 -0.10875186
0.14311892 0.13491681 -0.19846113 -0.15378864 -0.13409546 -0.081005104 -0.23706084 -0.12798098
-0.09097978 -0.048626997 0.051984597 0.15198137 -0.001419632 0.29285154 0.23174416 -0.013911925
0.22417252 0.19699793 0.10813713 -0.0027464873 -0.14911446 0.02834606 -0.13214114 -0.14096726
-0.1411125 -0.1878544 -0.113217235 -0.09224909 0.19744916 -0.0011541103 0.004026858 0.15522026
0.1327731 -0.11342039 -0.021836387 -0.1871159 -0.0042613763 0.06081234 -0.16923688 -0.1906664
0.07394555 -0.20116508 -0.14247543 -0.05052674 0.050188817 -0.17887603 0.17130126 -0.1279998
0.15274324 0.20436664 -0.15566148 0.09685478 0.05203589 -0.1689728 -0.08256507 0.17010885
0.17048009 -0.12176909 -0.26983964 0.06158366 0.002663317 -0.17049684 0.040098734 -0.08974906
-0.13845174 -0.05714722 0.03513866 0.17003706 -0.15418272 -0.00703057 0.2904415 -0.070633754
-0.22274546 0.00016450176 0.052666273 0.13799822 0.08239327 0.055635754 0.052082866 0.16269116
-0.03693773 -0.24609356 -0.14276037 0.005761351 0.16561972 -0.08156383 -0.21748234 -0.17524704
-0.012458964 -0.037573352 -0.13565412 -0.23524112 -0.064654306 0.23660912 0.07159483 -0.022289967
-0.19648854 0.16717337 0.28750452 -0.09896721 0.22513545 0.19436221 0.118982576 0.15217613
0.21594968 0.13017452 0.023812108 0.02329201 -0.11401998 -0.05730622 -0.030468708 -0.18009312
0.16905376 0.09668239 0.0017257221 0.12292003 0.12307875 -0.057193995 -0.20159592 -0.12325806
0.06670618 -0.22958171 -0.08745738 -0.21338966 0.17824586 -0.072920114 0.14710706 -0.025777802
0.06361506 -0.09350461 0.114559665 0.056776654 0.15654731 -0.14861155 0.21475068 0.038110785
-0.0706822 0.22204925 -0.17647709 0.2166131 0.2409614 0.15393643 -0.049372446 -0.23101526
0.18085873 -0.12675133 -0.18456984 -0.21754178 0.1800329 -0.056401573 0.016853563 0.005077352
-0.032518253 -0.10731279 0.0084620565 0.029371262 -0.07974848 -0.08857192 -0.057206318 0.14079681
0.19702438 0.014910549 0.16730154 -0.012104064 -0.17900506 -0.033285066 -0.15278973 0.15459675
-0.042099223 -0.13427535 0.21488076 -0.18681777 0.1553666 -0.23581897 0.022525039 -0.114762984
-0.13827893 -0.166201 0.05406871 0.025633033 -0.1562775 0.03333564 0.10578116 -0.050336614
0.01701243 -0.11993607 0.020575423 0.14949952 -0.11109167 0.19044206 0.1365873 -0.18224597
-0.21502413 0.036399033 -0.035981953 -0.023846779 -0.090612136 -0.16611725 -0.13399605 0.0204346
0.011567009 -0.16087976 0.011058 0.01634308 0.17532332 -0.021721965 -0.03724171 -0.008601914

linear.2.bias f4 [15]
00000000: 5f99 8c3d 76b9 0c3e cc2a 3a3e 10ff a0bd
00000010: d300 0fbe ca62 1e3e 4906 0ebe fa34 debd
00000020: 7b9d 72be 8ca0 22be 785e 3fbe ff2f 03be
00000030: 665d 623d 5813 cdbd 262b 17be
0.06865191 0.13742623 0.18180388 -0.07861149 -0.13965158 0.15467373 -0.13869585 -0.10849948
-0.23692887 -0.15881556 -0.1868838 -0.12811278 0.055264853 -0.10013455 -0.14762554

transformer.self_attn.in_proj_weight f4 [45, 15]
00000000: b62e 2e3d 6f56 a7bd 0ebb e0bd 68fd a03e
00000010: cc64 f4bd 108c 333e 06e7 fd3d 220a 143b
00000020: 2249 963d 3157 5c3e e04a ca3d a48a 85be
00000030: 16d3 29bd 7a87 2f3d 28e0 99be 0a8a 243e
00000040: f574 443e 1b4c 8dbe 50ff aa3d 5241 2c3d
00000050: 4cda 72be adf6 9abe 87eb 453e 0550 25be
00000060: 5f62 48be 0e06 323e 1fc2 20be 97bd 5e3e
00000070: 7c86 93be 80ad cd3d 3e58 58be 18bd 6cbc
00000080: e1cf 473e 7367 a33d ee39 98be 6bce 40be
00000090: 1224 c5bd ec4c 133d 7e7e 443e a383 58be
000000a0: 9ea1 5e3e 0206 33bd 92ab a83e 71b4 6b3d
000000b0: d003 29be e512 7f3d 00a8 773e deea 3f3e
000000c0: 1e80 aabd 2b73 1cbe 76ac 823e cfc8 14bb
000000d0: da2e 8dbd 2dbf 17be 372e 8dbe 294d 9cbe
000000e0: a88e ea3d 040e 153e 1fff 02be 72d4 49be
000000f0: c97a 983d a4e7 df3d 85e6 313e 0aef 91be
00000100: d556 84be 0288 fdbd 8d42 b9bd 9402 1b3e
00000110: de23 29be d985 a0be b018 aebc 7d8f 95be
00000120: 98d1 243e f8d3 903e 67c8 9fbe 4419 333e
00000130: d459 6cbc 5e57 b4bd 6170 75be 4567 0d3e
00000140: 981d 8c3d ea72 0b3d 95cd acbe d979 843e
00000150: ca05 8c3d fe40 0f3e c03a df3d 7b17 593e
00000160: e73d 87be 2096 143e 93ee 8ebe c9ed 31be
00000170: 6daf 6fbe 2138 18be 21b0 943e fea5 04be
00000180: 3e3b bf3d a8f2 92be 78c9 f23a 5855 8d3d
00000190: 3834 28bd e46c 713e e969 0c3e 5575 53be
000001a0: 147f f43d 9d14 813e 55b3 69be 2977 cebd
000001b0: d8e4 5bbd c82d 5ebe 7af0 083e 0f81 1ebe
000001c0: e288 d4bd 5c13 313e c4b8 b0bc fa18 463e
000001d0: f183 043d d290 01be 4bb8 0a3c b6b0 66be
000001e0: 5d0a 77be 7604 af3d 836c d73d e381 413d
000001f0: 9596 733e 7652 f63c a801 9dbe da58 5b3e
00000200: a24a 2dbd 50b2 1cbe 9778 24be 3152 c33d
00000210: d2e5 253e 423d b2bd 92d9 153e 88b0 fbbc
00000220: db05 113d 2346 d0bd 6700 0e3e e9b4 2dbe
00000230: 8a35 543d 9a3f 183e 5ae6 b1bc 549c 943e
00000240: cb7f 10be 608e 033d 9952 473e bdbc 3b3e
00000250: 2e55 0abd 6b8d 1abe c79e c6bd c531 a83e
00000260: f26d 763e 8f40 36be 6fd2 693b 9c1a c9bd
00000270: 109d 0cbe 4b92 54be ab81 25be 3d45 3d3d
00000280: 1f7d 8e3e cdff c43d d3d3 123d 32d5 003e
00000290: 5d4d 923e 2e9a c83d 7cc8 10be d070 3a3e
000002a0: 9ce4 0b3d 416f 413e 1ca9 76be 1958 eb3d
000002b0: 74bb b53e f792 14be 534a 88be 782b 71be
000002c0: 7b25 733e 1b66 263e ad40 7d3d 1e8c 553e
000002d0: 554d 473e 9077 5cbe c0bb 1e3d 0c25 3ebe
000002e0: dce0 95bc 09ff a4bd 1bb5 99be fa1c ac3c
000002f0: 11a3 833e 4114 76bc acee b13d a295 d5bc
00000300: 8288 90be 30e4 3abc a0f3 073d d860 98be
00000310: 1a62 8abe 6d34 743e 2c7f a23e 5964 933e
00000320: e014 323e d2ee 3e3d 91f8 84bd 00c4 9ebe
00000330: 6ad4 4cbe 2522 36be ac94 ebbd f250 2bbd
00000340: 9def 1ebe 60ba be3c f0c9 a2be ce6b a9be
00000350: 3d82 84be ce4c 2fbd 58f5 64be d26b 70be
00000360: 9318 1ebe 60ef 4f3d f506 4c3e 5469 f3bd
00000370: 2c09 46be c873 90be bf19 8abe 4c2f 20be
00000380: 7008 1c3d 9417 253c 4441 213e 6063 c7bd
00000390: 0a5c 143e 41be 81bd c0f9 f53d 53b0 72be
000003a0: 5648 833e 4a3b 963e a5db 1b3e b953 75be
000003b0: 1d6d 433e 8f67 11be 8c1c 2e3d 8705 9d3e
000003c0: 1c1f 813e 64e3 593e f58c 223e 448c 073c
000003d0: 477f 2ebe 11fe e6bd 374a fd3d cce6 663e
000003e0: 181f 51be 82b5 863e c835 04bd 5717 6abe
000003f0: 3385 1dbe a5de cbbd ea5e 51be afc4 6ebe
0.042525016 -0.08170783 -0.10973178 0.31443334 -0.11933288 0.17533898 0.1239758 0.0022589047
0.07338168 0.21517636 0.098775625 -0.26082337 -0.041461073 0.04285381 -0.3005383 0.16068283
0.1918524 -0.27597126 0.08349478 0.04205448 -0.23716086 -0.30266324 0.19328128 -0.16143806
-0.19568776 0.17385122 -0.15699051 0.2175201 -0.2881354 0.10042858 -0.21127412 -0.01444938
0.19512893 0.07978716 -0.29731697 -0.18828742 -0.096260205 0.03596203 0.19188878 -0.21143965
0.2174134 -0.0437069 0.32943398 0.05754513 -0.1650536 0.06227388 0.2418518 0.18741938
-0.08325218 -0.15278308 0.25522202 -0.00227027 -0.06893702 -0.14819022 -0.27574322 -0.3052762
0.11452991 0.14556128 -0.12792633 -0.19709948 0.074452944 0.10932854 0.17373092 -0.28502685
-0.25847498 -0.12379457 -0.09045897 0.15137702 -0.16517588 -0.31352118 -0.021252006 -0.29211035
0.16095579 0.2828672 -0.31207582 0.17490107 -0.014425714 -0.088057265 -0.2396865 0.13808925
0.06841582 0.034045137 -0.33750597 0.25874212 0.06837042 0.13989636 0.108998775 0.21200363
-0.26414415 0.14510393 -0.27916393 -0.17375864 -0.23406763 -0.14865161 0.29040626 -0.12953946
0.093374714 -0.28700757 0.0018523177 0.06901044 -0.041065425 0.23576695 0.13712277 -0.20650227
0.11938301 0.2521104 -0.22822316 -0.10081322 -0.05368504 -0.21697152 0.13372985 -0.1547892
-0.10377671 0.17292541 -0.021572478 0.19345465 0.03235239 -0.12652901 0.00846679 -0.22528347
-0.24125047 0.08545773 0.10518744 0.04724301 0.23787911 0.030068617 -0.30665326 0.21420613
-0.042307504 -0.15302396 -0.16061626 0.09537161 0.1620095 -0.0870309 0.14633778 -0.030723825
0.035405975 -0.101696275 0.13867341 -0.16963543 0.05180887 0.14868012 -0.021716285 0.2902552
-0.14111249 0.0321182 0.19465102 0.18333717 -0.03377264 -0.15093009 -0.09698253 0.3285047
0.24065378 -0.17798065 0.0035678407 -0.098195285 -0.1373179 -0.20758931 -0.16162746 0.04620861
0.27829835 0.096191026 0.035846543 0.12581328 0.28574648 0.097950324 -0.14138979 0.18207097
0.034153566 0.18890096 -0.24087948 0.11491413 0.35494578 -0.14509188 -0.26619205 -0.23551738
0.23744766 0.16249888 0.061829258 0.20854232 0.19463094 -0.21529984 0.03875327 -0.1856882
-0.018295698 -0.080564566 -0.30020985 0.02100991 0.25710347 -0.015019477 0.08688101 -0.026072327
-0.28229147 -0.011406943 0.033191323 -0.29761386 -0.2702797 0.23848124 0.3173765 0.28787497
0.17390776 0.046614476 -0.06492723 -0.3100891 -0.20002905 -0.17786463 -0.11502966 -0.041825242
-0.15521093 0.02328223 -0.3179469 -0.3309006 -0.25880614 -0.042797856 -0.22359216 -0.2347863
-0.15439062 0.050765395 0.19924529 -0.11885324 -0.19339436 -0.28213334 -0.26972768 -0.15643042
0.038093984 0.010076422 0.15747553 -0.09735751 0.14488235 -0.06335116 0.12010527 -0.23700075
0.25641125 0.2934211 0.15220506 -0.23957719 0.19084592 -0.1419966 0.042507693 0.3066828
0.25219047 0.21278149 0.15874083 0.008273188 -0.1704074 -0.11278928 0.12367671 0.2254898
-0.20422018 0.26310354 -0.032277852 -0.22860466 -0.15382843 -0.099545754 -0.20446363 -0.23317216

transformer.self_attn.in_proj_bias f4 [45]
00000000: 0c78 5dbb fd91 d03a 073f 0bbc 15f8 383c
00000010: 8e96 dabc aacb 423c 1efb e13c 2627 f63c
00000020: d59f 3dbc af0b 353c c8b7 9d3c 56d8 81bb
00000030: c1fc 183c 509d 12bd 8183 04bd 2cf4 0736
00000040: 1d06 49b7 2db1 c5b6 723e aeb8 5d07 dab7
00000050: 2af9 09b6 1224 aa37 ce55 e036 da09 61b7
00000060: cf6c b233 c882 d236 628d 5f36 33d6 bdb7
00000070: 631e 04b8 0004 9fb8 0646 143b 369a 5c3b
00000080: 7e0a 7d3c 6faf 84bc 93c8 fa3b a4d4 abb9
00000090: 7473 be3c 63c6 45bc 1328 923c 0c62 943c
000000a0: b694 c2ba af5f 1abc fad1 113b a4f8 f5bc
000000b0: c26c f33a
-0.0033793477 0.0015912649 -0.008498914 0.011289616 -0.026683118 0.011889378 0.027585562 0.030047964
-0.011573751 0.011050149 0.019252673 -0.003962557 0.009337605 -0.035794556 -0.032351974 2.0258694e-06
-1.1981957e-05 -5.8916835e-06 -8.308598e-05 -2.5991054e-05 -2.0559623e-06 2.0282376e-05 6.685709e-06 -1.3413339e-05
8.308563e-08 6.2737126e-06 3.3311885e-06 -2.26303e-05 -3.1499552e-05 -7.582456e-05 0.0022624745 0.0033661253
0.015444396 -0.016196935 0.007653305 -0.0003277409 0.023248412 -0.012071225 0.017841375 0.018113159
-0.0014845345 -0.009422227 0.00222504 -0.030025788 0.0018571841

transformer.self_attn.out_proj.weight f4 [15, 15]
00000000: 42b0 44bd 96ad 64be 8501 e03d af33 3dbe
00000010: 39fe 6a3d dfa0 583e 5bf7 cb3d 990d 1bbe
00000020: fb17 793d b210 dd3c 00ee 42be 8ccb 10be
00000030: d35f 48be 93a4 96bc d53a 4abe 223f c83d
00000040: 5476 2fbe bf45 953e 5d5c 18be b616 ffbd
00000050: 7df5 823d 694a c7bd 0412 f3bc ca5a 7bbe
00000060: 1906 8abd 0e13 833d 4818 963b 0b46 3bbe
00000070: 1459 f43d aff5 4cbd 63e4 53bd e656 723e
00000080: 8a2d 69be f3be 61be 0a87 3a3e 6013 083d
00000090: 31be 553d b00b ff3d ef7c 52be 719d 133e
000000a0: 1bfd 8d3c 4a6a b23d 381a ef3d aded d5bd
000000b0: b992 c93d bdc3 2a3e 8a20 dcbd 6458 7f3d
000000c0: 1341 1f3e da22 e43c 3f75 ca3d cf4d 74be
000000d0: 7776 d3bd 495c c03d 8d37 b5bc 7f55 3b3e
000000e0: f9af 2b3e 5660 7c3b 6091 3c3e 2ec6 973d
000000f0: ad22 813d f446 54bd 3e55 6fbd bf25 3dbc
00000100: 3cc6 0f3e 2727 543d e5d3 453d 38d0 56be
00000110: 53a6 42be e032 8bbd 95fe c43d ba07 35be
00000120: 9292 193e 9e8e 8c3c 9842 80be 03c3 333e
00000130: ec74 033c 5c6c 16be 06fc a0bc fa30 b1bd
00000140: bdf2 a03c 676a efbd d078 6c3e f99f c1bd
00000150: 0fd9 d8bd c040 bc3c ee12 3b3e 4fd5 03be
00000160: d059 013e 171e 093d 6706 65be 7b66 5ebd
00000170: 2130 27bd 402c 783d 1dab af3c 53ad 53be
00000180: 11bc 323d 3a43 453e c95f 4ebd 2d13 24be
00000190: 7f19 35be 3783 413e 5556 053e 9623 083e
000001a0: 0fc1 7f3d 8167 f43d 1a8e 23bd dc4e 213e
000001b0: 6d0e 1f3e a619 25be a369 023d 8335 79be
000001c0: d6d6 10bc 03f0 37be d691 f43d eab3 cf3d
000001d0: 434e 6dbe a2d8 13be 287e 01be ac5b 0d3e
000001e0: ea84 dcbc bf43 713d 60e0 3abd fb11 91bd
000001f0: b044 f3bd c86b 92be 4dbb a33d ca15 ed3d
00000200: 2a6b 77bd 8971 473e b36e 92be c528 35be
00000210: 6c1c 4d3e 6ab3 d4bd 3813 73bd 2bd7 6f3d
00000220: e7a2 943d 4047 69be f4c2 393e d1ec 7dbe
00000230: ef42 0f3e 8ece c63d a521 503e de93 833b
00000240: db25 91be f23c 62be 7db3 35be ca2d 8d3d
00000250: eb2d ecbd a1a5 3abe 5181 583d d609 843e
00000260: a06d f43c f767 553d 1daf e43d eec7 a5bd
00000270: a69b 09be d762 ab3c 6fdb 40bd e62c 13bd
00000280: 7096 babd 7474 153d 1290 a0bc 393e 0c3e
00000290: f5d1 f93d 0f4c 42be 279a eaba 44e1 efbb
000002a0: 55df c83c 8942 14be 309b 263b 46b9 6abe
000002b0: 7def 3a3e f791 733e cdb3 813e 3845 633e
000002c0: afc9 643d 2615 4abe 246a 81bd 93f6 cbbd
000002d0: b912 3cbc 9bd9 213e 068a d2bd bbd8 46be
000002e0: e435 cb3d 73f3 493d 5a6f 10be 64e8 24be
000002f0: c6a9 2e3d 79e2 73bc e589 4a3d 9769 3e3e
00000300: 26e2 323d a391 0abe c826 053e 86af db3c
00000310: 15a3 363e d43f 3d3e 8072 00be bb33 763e
00000320: cad0 b6bd ede8 7e3e 8702 e5bd 4b17 48be
00000330: ea9c dfbd 6d4a 9d3e 1326 4fbd 37a6 7ebe
00000340: e1c2 683d 057f 8a3e 9eaf 11bd d57f 75be
00000350: f42b 323e a43f 0dbe ef42 54be 11a0 bebd
00000360: 70b9 633e 58c3 113d 8855 06be fd53 1c3e
00000370: bf3d e03d c918 1d3e eb3f 67be 9729 113e
00000380: 6749 72be
-0.048019655 -0.22331843 0.1093779 -0.18476747 0.057371352 0.21155117 0.09959289 -0.15141906
0.060813885 0.0269855 -0.19036102 -0.14140147 -0.19567804 -0.018389022 -0.19749005 0.09777667
-0.17134982 0.29154775 -0.14878984 -0.12455504 0.063944794 -0.097309895 -0.029671676 -0.24546352
-0.06739444 0.06400119 0.0045805313 -0.18288438 0.11931053 -0.05003899 -0.05173148 0.23665962
-0.22771278 -0.22045498 0.18215576 0.033221602 0.052183334 0.12453401 -0.20555471 0.14415528
0.017332604 0.08711679 0.11674923 -0.10445724 0.09842438 0.1667623 -0.10748394 0.062340155
0.15552168 0.02784865 0.09885644 -0.23857807 -0.1032533 0.09392602 -0.022121215 0.18294333
0.16766347 0.003850957 0.18414831 0.07410847 0.06305442 -0.05182548 -0.058430903 -0.011544644
0.14040464 0.05179515 0.04829778 -0.20977867 -0.1900876 -0.06796813 0.0961887 -0.17678729
0.14997318 0.017157849 -0.25050807 0.1755486 0.008023482 -0.14689773 -0.019651424 -0.0865192
0.019646997 -0.116902165 0.23092961 -0.094543405 -0.10588276 0.022980094 0.1826894 -0.1287434
0.12631917 0.03347596 -0.22365724 -0.05429695 -0.040817384 0.060589075 0.021443898 -0.20671587
0.043636385 0.19263926 -0.050384317 -0.1602294 -0.17685507 0.1889771 0.13021214 0.13294825
0.062439974 0.11933804 -0.03993044 0.15752739 0.15532847 -0.16123065 0.031839024 -0.2433682
-0.008840283 -0.17962651 0.119418785 0.10141738 -0.23174386 -0.14438108 -0.12645781 0.13804501
-0.026918847 0.0589025 -0.045624137 -0.070835076 -0.118783355 -0.28597856 0.07994709 0.115764216
-0.060404934 0.19476904 -0.28600082 -0.17691334 0.20030373 -0.10385783 -0.0593445 0.05855481
0.07257634 -0.22781086 0.18140775 -0.2479737 0.13990377 0.09707366 0.20325334 0.00401543
-0.28349194 -0.22093561 -0.1774425 0.06893499 -0.11532196 -0.18227245 0.0528577 0.25788754
0.02983743 0.0521011 0.11166213 -0.08094774 -0.13438281 0.020921154 -0.04708427 -0.03593149
-0.09110725 0.03648801 -0.019599948 0.13695611 0.12198249 -0.18974327 -0.0017898724 -0.007320555
0.024520556 -0.14478506 0.0025422089 -0.22922239 0.1825542 0.2378615 0.2533249 0.22194374
0.055856403 -0.1973463 -0.06319073 -0.0995914 -0.011479073 0.15805666 -0.10280232 -0.19418614
0.09922388 0.049304437 -0.14104977 -0.16104275 0.042642377 -0.014885538 0.049447913 0.18594967
0.043672703 -0.13532118 0.13003075 0.026817095 0.17835648 0.1848138 -0.12543678 0.24043171
-0.08926542 0.24893542 -0.11182123 -0.19540136 -0.10918601 0.30720845 -0.05057342 -0.24868093
0.056826476 0.27050033 -0.035567872 -0.23974545 0.1739958 -0.13793808 -0.20728658 -0.09307874
0.22238708 0.035586685 -0.13118565 0.15266414 0.10949277 0.15341486 -0.22582977 0.14176022
-0.23660813

transformer.self_attn.out_proj.bias f4 [15]
00000000: 6f6c 2a3c 33cc 57bc ca08 983b 35ab 9d3b
00000010: e61b 913c 9b3e cabb 9b09 03bb 1024 2eba
00000020: 7868 bf3c b6f4 3f3c 4470 363c b93d 8d3b
00000030: ead0 893b f01f 823c df68 cf3c
0.010401829 -0.0131712435 0.0046397196 0.0048116692 0.017713498 -0.006172014 -0.001999474 -0.0006642947
0.023365244 0.0117160585 0.011135165 0.0043103364 0.0042058127 0.01588437 0.025318561

transformer.linear1.weight f4 [2048, 15]
00000000: 15b0 f43d 47ff 553c dd9a 5cbe e7a2 f6bd
00000010: 44b9 073e bcf4 7b3e 40f0 36be c1eb 153e
00000020: de5a 17be 5d83 d2bd 031e 94bc b56d 133e
00000030: c78f 37be 37fc cd3c 5579 4a3e 892f d83d
00000040: 687b 2a3d ac41 233e 86c3 47bd 4c8a 5f3e
00000050: 8578 413e 7ab4 513d b436 063c 7766 b4bd
00000060: be60 b6bc a01b 6b3e 5393 243e 712b 1e3e
00000070: a204 a73d 197d 1bbe 1a98 133c c5b9 f3bd
00000080: 8256 64be 6d08 50bd 1c82 3bbd 0334 42bc
00000090: 2245 be3d 90c6 68be 32b3 67be d5ec 433d
000000a0: e7a0 b8bd aace 3d3e a4aa 023e 66e3 6fbd
000000b0: 8704 f4bd d539 19be 5cab 7b3e 09f6 b4bc
000000c0: 21d7 74be db74 80be 1399 7e3e 0ef5 a43d
000000d0: 104a 293e b78e 933d 9de5 a1be 2837 b9bd
000000e0: 50c5 60be 87de 41bd c2e0 01be c890 013e
000000f0: e9fd 323e a770 883e d8dd 3f3e c17e 63be
00000100: 37f0 333e d324 913e dd6c d6bd 3fb9 ce3d
00000110: 83ec 3dbd 7532 5d3d 1e5a 3abe 0da9 873d
00000120: a3c4 203d 498b 29be e1b8 213e 94c8 0b3e
00000130: 7c26 be3d 1e46 7d3c 5301 e2bd 7be4 243e
00000140: d9e8 443e 31f8 663d 5d35 13be 35a6 17be
00000150: b8c6 aa3d 7821 2cbe cad9 7dbd 6459 643e
00000160: 7560 b5bb 9851 fd3d a4c1 52bd d03d 35be
00000170: 1043 af3b 8e3a 513e 24e9 0b3e afc3 fabb
00000180: bc36 873d 037c 553e db89 d83d 4081 6a3e
00000190: 9ace 1dbe 6baf 70be 7683 0cbe aeda fbbd
000001a0: f3bf 0f3d 5751 803d 515e 09bd 2fe4 33be
000001b0: b243 5fbd 33b2 c6bd a167 2abe cee9 0e3e
000001c0: 1f95 ab3d de5d 0c3e faf3 3f3e 5640 e73d
000001d0: c35e 8c3d 34c9 e5bd f441 f33c 2d15 b23d
000001e0: 801f 283e 9b5b 693e 0d1e dabd 75af 3cbe
000001f0: 50af 9b3d aee9 863e 9add 75be 59de f6bd
00000200: 5592 45be 4b79 573d 5183 6bbe 2ac5 3b3e
00000210: f13e 473e 3cd1 c4bd 2eff 3e3e 310c f7bd
00000220: 7599 403d dac9 023e 83a0 54bc 45de a13c
00000230: 84a3 173e 73f1 c93d bcc3 9a3e b9d1 23be
00000240: a4c8 5dbe 881a 5a3c c1bf 02be e6d5 45be
00000250: 51e6 7b3e f14e 803e e8bc 0d3e 1145 8a3d
00000260: 7c96 a83d cb5d 87be 95d3 693e 55bb 713e
00000270: ff3d e83d 0da4 da3d fb08 4abe de80 c53d
00000280: 058b fb3c 2f34 253e 895b 14bd f0cc 0d3c
00000290: 47dc 61be e08e 91bd f738 ffbd 11cf 653e
000002a0: 2652 8d3e a742 52be bfd2 17be 14f0 cfbb
000002b0: ed54 86be 6c3e 0a3e 08d4 fdbd afb9 90be
000002c0: c85c 473e 6804 2e3e a38c 0f3e 6224 083e
000002d0: afc9 5cbe fd7c 333e 6acc 1a3e a751 0bbe
000002e0: 107d 7c3e ad38 063e 7fe6 943e 5b16 603e
000002f0: 82e2 a8bd 275b 5e3d 7162 763e 48ed 623e
00000300: b0ba 463d e04c 47be 947c 57be 781d 4c3e
00000310: e749 0bbd 0f23 35bd 165f 1a3c 0ce9 923d
00000320: 0643 523e a97e dabd bded ec3d 3a09 ae3c
00000330: d447 46be 4821 b73c c3b5 b83d 9343 50bd
00000340: 3e70 a6bd 26b4 e23c 351b 4dbe 34df c63c
00000350: b6b4 4bbe c379 2cbe 0a86 32be d3fe e53d
00000360: 4e71 2b3e aab0 803e 1cd7 3fbe 8270 623d
00000370: 7537 55be 9460 8e3d 7133 8fbe 1363 503c
00000380: b6da 723e f06e 853e 5ca0 bb3d c50d edbd
00000390: 0881 583d 9eac 19be c659 6c3e c472 353e
000003a0: 10d7 d3bc 33bf 0dbe 18b1 753c 4a2c 403c
000003b0: 5a8e f2bc 4d4f 43be 6c67 113b 5757 523d
000003c0: 2aa6 a53c e672 ab3c dfa6 6fbd cfc7 3d3e
000003d0: d477 683d e5af 89be 6842 9d3d e80b d13c
000003e0: a55f f73d 6d0d 213e 95fa 733e 593d c13d
000003f0: fd09 5cbe 4fc7 003e 3295 0d3e 71ec 0fbe
0.119476475 0.013061351 -0.2154345 -0.1204279 0.13254267 0.24605078 -0.17865086 0.14640714
-0.14780757 -0.10278962 -0.018080717 0.14397319 -0.1792594 0.02514468 0.19772847 0.105559416
0.041621596 0.1594302 -0.04877045 0.218301 0.18893631 0.051197506 0.008191753 -0.08808606
-0.022262927 0.22959757 0.16071825 0.15446259 0.081551805 -0.1518444 0.009008432 -0.11900667
-0.22298625 -0.050789285 -0.04577838 -0.011853221 0.0929053 -0.22731996 -0.22626951 0.047833283
-0.09015065 0.18535867 0.12760407 -0.058566473 -0.11914926 -0.14963467 0.24577087 -0.022089975
-0.2391019 -0.25089154 0.2486308 0.08054553 0.16532159 0.07204955 -0.31620494 -0.09043723
-0.21950269 -0.04733136 -0.12683395 0.12652886 0.17479672 0.26648447 0.1873697 -0.22216322
0.17572103 0.28348407 -0.10469983 0.10093927 -0.046368133 0.054003198 -0.1819844 0.06624041
0.039250027 -0.1655704 0.15793182 0.13650733 0.09284684 0.015458612 -0.11035409 0.16102783
0.1922945 0.056389038 -0.14375825 -0.14809497 0.08338684 -0.16809642 -0.061975278 0.22299725
-0.00553518 0.123690784 -0.0514542 -0.17699361 0.0053485706 0.20432493 0.13663155 -0.007652722
0.06602237 0.20848088 0.10573169 0.22900867 -0.15410843 -0.23504417 -0.13722023 -0.12297569
0.035095166 0.06265514 -0.033537213 -0.17567514 -0.05450792 -0.097019576 -0.16641094 0.13956377
0.08378052 0.13707682 0.18745413 0.11291568 0.06854012 -0.11220017 0.029694535 0.08695445
0.16418266 0.22788851 -0.10650263 -0.18426307 0.076017976 0.26350158 -0.24010316 -0.12054128
-0.19294102 0.05260591 -0.22999312 0.18336931 0.19457604 -0.09610221 0.18652031 -0.12062872
0.047021348 0.12772313 -0.012977722 0.019759307 0.1480847 0.09860506 0.30227458 -0.15997972
-0.2165857 0.01331199 -0.12768461 -0.19319877 0.24599577 0.25060228 0.13841593 0.067514546
0.082318276 -0.26438746 0.22834618 0.23606618 0.1133995 0.106758215 -0.19729988 0.0964372
0.030705938 0.16133188 -0.036220107 0.008654818 -0.22056685 -0.07107329 -0.12462037 0.22442271
0.27601737 -0.20533238 -0.14826487 -0.006345758 -0.26236668 0.13500375 -0.123939574 -0.28266665
0.19468987 0.16993868 0.14018492 0.13295129 -0.21561311 0.17528148 0.1511704 -0.13605367
0.24657083 0.13107558 0.29082105 0.21883528 -0.08246328 0.05428615 0.2406099 0.22160828
0.048517883 -0.19462919 -0.21043617 0.19933116 -0.034006026 -0.044222888 0.009422084 0.071733564
0.2053338 -0.1066869 0.115687825 0.021244634 -0.19363338 0.022354737 0.09019043 -0.050845694
-0.08126877 0.027673792 -0.2002991 0.024276353 -0.19893155 -0.16843323 -0.17433944 0.112302445
0.16742441 0.25134784 -0.18734401 0.055283077 -0.20821936 0.069520146 -0.27968934 0.012718934
0.23716244 0.260612 0.091614455 -0.11574892 0.05285743 -0.15007254 0.23081121 0.17719561
-0.025859386 -0.13842468 0.014995836 0.011729309 -0.029608894 -0.1907322 0.0022186888 0.051352825
0.020220835 0.020928811 -0.05850875 0.18533252 0.056754902 -0.2689201 0.076786816 0.025518373
0.120787896 0.15727778 0.23826058 0.09435529 -0.21488185 0.1257603 0.13826445 -0.14055039

transformer.linear1.bias f4 [2048]
00000000: 85d1 c4bd c4a6 bebd b1e5 0dbe f8a6 22be
00000010: 2c9c f9bd b088 71bd c868 873e a043 4b3e
00000020: 64a2 3fbe f692 2ebe 92f2 4c3e e2a6 94bd
00000030: 05ca 14be 41b4 13be d3bd 52be db84 77bd
00000040: 5dc3 c23d 8f02 1f3e 8700 233e 3673 5fbd
00000050: 2f7a 2bbe 15a1 2fbe 91bd 673d 18a2 8dbd
00000060: f679 fa3d b47f 1abe 6b38 f83c 008d 65bd
00000070: 15ed 37be 9c56 7cbc ee73 25bc 2c38 fe3d
00000080: 6659 573e 3b4a 693e 0f6d 98bd 3f90 903d
00000090: 8f18 1abe 8991 4ebe 98d0 7dbd ef82 3f3e
000000a0: f058 753d c67a 40be 34ac 46bd ef3c b63d
000000b0: 5848 083e 7a2d 183e cc71 f3bd 57e3 30be
000000c0: bc80 c6bd 2d0e 0bbe 8b33 12bd 797f 123e
000000d0: adec d7bd 43aa 443d ae44 ba3d 2d0d 47be
000000e0: 4502 70be c586 853e 5333 2a3e 47b3 ef3d
000000f0: c570 0c3e 33fb adbd 41a2 373e 369e 66be
00000100: 107d 56be 6222 fb3d 2dea b5bd ccd7 88bd
00000110: 0c8d 05bd bdba 57be 8bc1 2abc f827 05be
00000120: c425 2a3e c981 7cbe 4f95 cf3d ebc4 5fbe
00000130: 33b0 57be 7262 2c3e 18dd 8bbe 4d50 193c
00000140: df54 83bd 91d4 363e de5d f43d c492 fdbd
00000150: 35f4 793e 8954 9e3d 65e7 923e 62d6 5b3c
00000160: 9c3f 83bd d632 4fbe ad79 823e f21f 103e
00000170: 3dc0 b83d b6ba 263e 8ed2 82be c7d1 d53c
00000180: 37a4 433e 6495 0dbe 308e aa3d 7850 06be
00000190: d22b 723e c6b9 2abd f96b 3cbe 9c8c 88bb
000001a0: 1f88 7e3e 993d 0d3e a5e0 53bd 08f2 4cbd
000001b0: 53b6 033d 4217 193e b5c6 4abd f1fb ea3d
000001c0: 521a fc3d 54c5 e43b 4898 82bd 154d 98be
000001d0: f8bc a7bc ed69 5c3e 995b 90be 2962 493e
000001e0: 4752 583d 6b36 3fbe 9b2f f73c cb7c 203e
000001f0: 56c3 c0bc 98f2 0ebe 81cf a43d 214c e6bd
00000200: 1aa3 29be 6364 9ebd 6c56 cd3d a486 4f3e
00000210: fa43 0dbe e3b0 1d3e a662 57be aae4 55be
00000220: e01d c73d cc46 edbd 6753 323e 04f3 f03d
00000230: 0724 8cbd 3c40 bf3d 5d65 8a3c f264 063d
00000240: 6db5 913d e938 d5bd 238a 9cbe 157e 37be
00000250: 50d3 91bd edaa afbd 0495 123e ba26 ccbd
00000260: 594e 50be f7d7 633d 35a0 6e3e 5266 cbbd
00000270: 0815 2dbe 2db4 f83d b585 d2bd 2c5b 4ebe
00000280: b09d 82be 73e3 00be f817 033e f36d 46be
00000290: f979 3bbd 9fd7 973c 8eca 4ebe a16c bf3d
000002a0: 3408 dfbc be69 31be 6533 393e 4fe8 923e
000002b0: cbd0 683d 2f5a b7bd d88a 6abd b0ec ea3c
000002c0: c616 3dbd 9e75 d83d 3f08 2e3e 275d fa3c
000002d0: a462 2c3e c9a4 c3bd 4823 d8bd 176b 0dbc
000002e0: 382f 223e 7432 943d eb3e c9bd 7f94 eabd
000002f0: c224 e33c f569 59be 81d1 ed3d 2cd7 69be
00000300: 568d e13c 4712 a5bc 9d95 eb3d fec7 9c39
00000310: b9f5 a83c 945a 253e 0a78 d9bd d050 ad3d
00000320: bd39 9e3d 4a9c b83d 9133 e73d 95a3 28be
00000330: c6e1 34be f30e 18be 0089 9b3d 913b acbd
00000340: bbd3 1d3e e61a 36be f6d0 32be ac86 0fbd
00000350: 2402 ef3d 098a cfbd d7c6 bf3d 9436 033e
00000360: a2ba 593d 7c40 45bc c467 163e bb4b f23d
00000370: 72d2 503e 47bb 6d3c f421 413e 47ef 6fbd
00000380: 3453 76be 991c 123d adce 1a3e 98dc 1dbe
00000390: 5bce 10be deea c03d 486e 913c 3b22 ac3c
000003a0: 527e 543e 8e7e 053e 2cb9 6c3e f033 773a
000003b0: a0f9 70be 4fa9 32be 3862 843c 33df 5cbd
000003c0: 6ae4 c5bd c947 383e cdec 14be 8437 08be
000003d0: eb9a 4ebe 8c68 48bc 3aa3 0a3e a739 97bd
000003e0: 4662 62be a8e1 953d 4afc a0bd 0698 26bd
000003f0: 668c 11bd 1ca2 8abe 9318 3f3d a261 1fbe
-0.09610275 -0.09309152 -0.13857152 -0.15884006 -0.121879905 -0.058968246 0.2644713 0.19850016
-0.18714291 -0.17048249 0.20014408 -0.07258393 -0.1453019 -0.1442423 -0.20580225 -0.060429435
0.09509919 0.1552832 0.1591817 -0.054553233 -0.16745828 -0.17151292 0.05657727 -0.069156826
0.122302935 -0.15087777 0.03030034 -0.05604267 -0.17961533 -0.015401509 -0.010098441 0.12413058
0.21030197 0.22782223 -0.07442676 0.07058763 -0.15048431 -0.20172705 -0.06196651 0.18702291
0.05989927 -0.18796834 -0.04850407 0.08898341 0.13308847 0.14861098 -0.118869394 -0.17274223
-0.09692523 -0.13579626 -0.035693686 0.1430644 -0.10543189 0.048013937 0.09095131 -0.1943862
-0.23438366 0.26079383 0.16621141 0.11704116 0.13714893 -0.08495178 0.17932989 -0.2252129
-0.20946145 0.122624174 -0.08882556 -0.06681785 -0.032605216 -0.21067329 -0.010422121 -0.13003528
0.16615969 -0.24658884 0.101359 -0.21852462 -0.21063308 0.16834429 -0.2731712 0.009357524
-0.06412672 0.17854525 0.11931966 -0.12381509 0.24409564 0.077309676 0.28692165 0.013417812
-0.06408617 -0.20234236 0.25483456 0.14074686 0.090210415 0.16282162 -0.25551265 0.026101006
0.19105612 -0.13826519 0.08327901 -0.13116634 0.23649529 -0.041681074 -0.18400563 -0.0041671526
0.24856614 0.13793029 -0.05172791 -0.050035506 0.0321563 0.14950278 -0.049505908 0.11473835
0.12309708 0.006981531 -0.063767016 -0.2974631 -0.02047585 0.21524782 -0.28194883 0.19666351
0.05281284 -0.18673103 0.030174067 0.15672605 -0.023530643 -0.1395973 0.08047391 -0.11244989
-0.16566125 -0.07733991 0.10026249 0.20266205 -0.13795462 0.15399508 -0.21033725 -0.2088801
0.09722495 -0.11585769 0.17414628 0.117651016 -0.06842809 0.093384236 0.016894037 0.032811113
0.07114682 -0.104112454 -0.3057414 -0.1791919 -0.07120383 -0.085775234 0.14314657 -0.09968324
-0.20342387 0.055625882 0.23303302 -0.099316254 -0.16902554 0.12143741 -0.10279409 -0.20151967
-0.2551093 -0.12586765 0.12802112 -0.1937788 -0.04577062 0.018535433 -0.20194456 0.09346891
-0.027225591 -0.17325494 0.18086012 0.28692862 0.056839745 -0.08952748 -0.057261318 0.028677315
-0.046164297 0.10569309 0.16995333 0.030561997 0.16834503 -0.09552915 -0.10553604 -0.008631489
0.15838325 0.07236186 -0.09826454 -0.11454105 0.027727488 -0.21231826 0.11612225 -0.22835988
0.027533215 -0.020150317 0.11503146 0.00029903644 0.020624982 0.16147834 -0.10618599 0.084626794
0.077258565 0.09014185 0.112891324 -0.16468652 -0.1766425 -0.14849453 0.0759449 -0.08409799
0.154128 -0.17783698 -0.17462525 -0.035040542 0.1167033 -0.1013375 0.093640976 0.12813789
0.053156503 -0.0120393 0.14688021 0.11830851 0.20392779 0.014509982 0.18860608 -0.058577802
-0.24055177 0.035671804 0.15117903 -0.15416181 -0.14141218 0.09419797 0.017752782 0.021012416
0.20751312 0.13036558 0.23117512 0.00094300415 -0.23532724 -0.17447399 0.016160116 -0.053923797
-0.09662707 0.17996134 -0.14543457 -0.13302428 -0.20176284 -0.012231957 0.13538828 -0.07384043
-0.22107801 0.07318431 -0.0786062 -0.040672325 -0.035534285 -0.27076805 0.046654295 -0.15564588

transformer.linear2.weight f4 [15, 2048]
00000000: e502 593c b2f0 623c 3849 8f3b 5e8a 773d
00000010: 16df 0b3d 597c f83b ca13 25bd 9fd3 c4bc
00000020: 0948 343d edd1 be3c dc95 fc3a 8c1b afbd
00000030: 3371 b53c b6c7 f13c bf72 a4bb 484c 3d3c
00000040: 59e6 1dbd de10 94bc ad0c 41ba 87c1 d2bb
00000050: f672 3b3d d90a 4e3c 0424 853c 0925 31bd
00000060: ae38 13bd 43e7 cfbc c0fe 8cbc 39e7 6abc
00000070: faa0 59bd a4ba 0d3a 8711 c03a abba 083d
00000080: e823 14bb 601e 4f3d 31d1 fe3c 9a8e 063b
00000090: 442f f5bb 31a5 97bc ef20 86bc cdfa 723d
000000a0: 860b 53bd ad92 ff3b 7442 a4bc 517e bc3c
000000b0: c485 56bc 6627 713c 3fda eaba 56c9 a2bb
000000c0: aa5a 25bd eaab 713c 603f 9b3c 73c4 1dbd
000000d0: 9715 cf3c dfeb 0e3c 21b8 e3bc 3a4f fcbc
000000e0: 2cf0 fb3c 4c5a 8ebc 7d0f a7bc 39d6 d739
000000f0: e3a0 483d cee2 ef3c 2ed1 d5ba bab4 c23c
00000100: 33a9 123d 2474 57bc 53d1 1f3c 46e8 39bd
00000110: e609 e73c 70dd 51bd 580d 0f3d ff6a 7aba
00000120: 9473 c03c 581f 0ebd 21c0 39bc a765 b1bb
00000130: 04db 1c3c 5a9e 103c f5fa 533b 779a 9b3c
00000140: db72 aebc 62e5 d3bb fdc5 dcbc 14a7 b2bb
00000150: 8a65 67bd 1f3d 803c a9fa a4bd 14f8 8cbc
00000160: e23f 47bd 06ae 16bb 5c1c b03c 0772 4bbc
00000170: 199b ba3c 1a74 4f3d ed5e 1fbd 2541 ae3a
00000180: 17b7 983d dfec ecbb 352d ee3b de3e 56bc
00000190: ecbe ffbc bffe 00bd 97f6 16bd a4e3 cbbc
000001a0: 83a8 2a3d 914b 91bd 40d9 103d 4bd6 e73b
000001b0: bbff 34bc fc34 9eba b225 c93c 34c1 04bd
000001c0: 207c 723b 8ff6 11bb 4ad4 bfbc c5b4 aabc
000001d0: a028 f23c a607 2c3d aa99 2d3d 84ee c6bc
000001e0: 302b 75bc 661d 17bd fc05 89bb 52d7 693a
000001f0: 999f a1bc 66fb 953c 319c b83a aaab c1bd
00000200: eedc c2bc 326f 703b ee2e bf3b 7b35 b83c
00000210: 7991 b53b 5109 133c d182 c93c 94c8 b2bb
00000220: d3f8 233d 568f 2b3c 2dff 49bc 6525 353b
00000230: f92d f3bc 6a17 38bd 5f59 78bd 8d6f e53c
00000240: 1743 333c 2c3a 7abc b0bb bd3c 706a 19bd
00000250: 915e 54bc a272 36bb 9245 23bd e5e6 5dbd
00000260: 409e 2fbd 5870 0d3c f46b 27bd 0eac 013d
00000270: d4fc 9cbc 7759 cc3c 3e82 0abd cbca 1f3c
00000280: 932e 063d 03ed 7abb 3d6b 203d bd45 c6bc
00000290: 63d0 653b ad1b 26bb e61d 753c c78c a93c
000002a0: b0ed f2ba 6c44 783d 5f72 aa3b 2596 0abd
000002b0: f31d 2f3c 7dfa 403d 0212 fd3c 426d 113d
000002c0: 314d d9bb 6e58 7d3c 502f 0ebd f87f aabb
000002d0: deb5 36ba 21e0 e4bc 9712 763d cc0d 4c3d
000002e0: 1fd0 47bc 11fa 21bd 26db 113d 8305 7cbd
000002f0: ff52 df3c b492 923c 08a1 21bd 4c28 423d
00000300: f196 cabb 29c0 213d 2997 003d 9a45 3c3d
00000310: b0c1 c93c faca a53c c3d7 8cbc a4ec 8f3c
00000320: b002 15bc 51ee b3bc 928a f8bc 5139 4abc
00000330: 23c8 9ebb a481 34bd 89d6 c53c 21ac c43c
00000340: b857 7d3d 8f81 ffbc 8f28 793b 848f 1dbd
00000350: 100e 8d3b cc33 a03b 09d3 da3c 23ca 073d
00000360: e7dc 743d cb57 1cbd 3f0f 943c 646d aa3c
00000370: 2903 90bc 4784 963c 947e c13a c00b 8bbd
00000380: 3d0c 903c c3e7 783b 74ee 153d d86b 283c
00000390: f410 f8bc f5ad 473c 5b6b 76bd 184c 203c
000003a0: 4ce5 63bc 785f 23bc 8df3 e0ba faae 333d
000003b0: 8004 1c3b abe7 d53b a67c 11bd 4f0b 2bbc
000003c0: c119 383c 23a7 d63c 6fa5 5ebc 9b0e 14bd
000003d0: c372 57bd a181 efbb e1c7 d1bc 418c a43c
000003e0: f26b 9b3c c170 41bd 5dfa b6bc 0852 8bbd
000003f0: 8ff1 e23b 161d dfbc c1b3 e6bc d865 b03c
0.013245319 0.013851332 0.004372742 0.06043469 0.0341483 0.007583183 -0.040302075 -0.02402669
0.04401401 0.02329346 0.0019270736 -0.08550176 0.022148704 0.029514175 -0.0050185616 0.011553831
-0.038549755 -0.01807445 -0.00073642546 -0.0064317617 0.045763932 0.0125758285 0.016252525 -0.04324821
-0.035942726 -0.025378829 -0.017211318 -0.014337354 -0.053132035 0.0005406535 0.0014653661 0.033381145
-0.002260441 0.050566077 0.03110561 0.0020531774 -0.007482441 -0.018511387 -0.016373126 0.059321214
-0.05152466 0.0077994675 -0.020051219 0.023009451 -0.013093416 0.014718866 -0.0017917826 -0.004967849
-0.040369667 0.01475046 0.018951118 -0.038517427 0.02527885 0.008723228 -0.02779776 -0.030799497
0.030754171 -0.017377041 -0.020393128 0.00041167604 0.04898156 0.029282954 -0.0016312951 0.023767818
0.035805892 -0.013150249 0.009754497 -0.04538753 0.028202962 -0.05123657 0.034924835 -0.0009552687
0.023492612 -0.03469786 -0.011337311 -0.005413729 0.009573702 0.008826816 0.0032345627 0.018994553
-0.021295002 -0.0064665535 -0.026949877 -0.005452046 -0.05649332 0.015654145 -0.08055622 -0.017208137
-0.048644908 -0.002299191 0.021497898 -0.012417323 0.022779034 0.050647832 -0.038908888 0.0013294561
0.074567966 -0.0072303857 0.0072685727 -0.013076512 -0.031218968 -0.031492945 -0.03685626 -0.024888821
0.04166461 -0.07094491 0.035363436 0.0070751063 -0.011047299 -0.0012070234 0.024554107 -0.032410815
0.0037000254 -0.0022272205 -0.023416657 -0.02083815 0.029560387 0.04199948 0.042382874 -0.024283655
-0.01496391 -0.03689327 -0.0041816216 0.000892033 -0.019729422 0.018308353 0.0014084635 -0.094565704
-0.023786988 0.0036687371 0.005834452 0.022486439 0.0055410233 0.008974389 0.024598511 -0.0054560397
0.04003222 0.010471186 -0.012328905 0.0027640697 -0.029685007 -0.044944204 -0.060632106 0.028007293
0.010941288 -0.015272658 0.023160785 -0.037455022 -0.0129619995 -0.0027839323 -0.03986127 -0.054175276
-0.04287553 0.008632742 -0.040874436 0.031658225 -0.019163527 0.024945004 -0.033815615 0.009752939
0.03275926 -0.0038288243 0.03916477 -0.024203176 0.0035066835 -0.0025346086 0.014960742 0.02069701
-0.0018533971 0.060612127 0.0052016224 -0.033834595 0.010688293 0.047113884 0.030892376 0.035504587
-0.0066315164 0.015462978 -0.03471309 -0.0052032433 -0.00069698493 -0.027938904 0.060076322 0.049817845
-0.012195616 -0.039545123 0.035609387 -0.061528694 0.027261255 0.01789222 -0.039460212 0.04740171
-0.0061825444 0.0394899 0.031394158 0.045964815 0.02462849 0.020238388 -0.017192727 0.017568894
-0.009094879 -0.021964224 -0.030339513 -0.012342767 -0.0048456355 -0.044068947 0.02415015 0.024007859
0.061851233 -0.031189708 0.003801856 -0.038466945 0.004304655 0.004888987 0.026711958 0.033151757
0.05978098 -0.038169663 0.018073676 0.020804115 -0.017579632 0.018373622 0.0014762455 -0.067893505
0.01758396 0.0037979938 0.03660436 0.010279618 -0.030281521 0.012187471 -0.060160976 0.009783767
-0.013909649 -0.009971492 -0.0017162428 0.043868043 0.0023806393 0.006527861 -0.035519265 -0.010439708
0.011236609 0.026202744 -0.013589247 -0.03614674 -0.05259968 -0.007309154 -0.025608005 0.02008641
0.01897237 -0.04722667 -0.02233618 -0.068027556 0.0069257687 -0.027235549 -0.028161885 0.021532938

transformer.linear2.bias f4 [15]
00000000: f648 933b 8c07 a4bb d99c 503a 22e3 afbc
00000010: 054e b4bc f08d 143c 4d5e a53c ad29 c8bc
00000020: c6f1 f0ba 8b0b b8bc 5b3f 71bc f6cc 0abd
00000030: c890 e2bc 3d86 86bc a03b a03c
0.0044947816 -0.0050057825 0.00079579424 -0.02147061 -0.022009859 0.009067044 0.020186568 -0.024433935
-0.0018382601 -0.022466442 -0.014724578 -0.033886872 -0.027656928 -0.016421432 0.019559681

transformer.norm1.weight f4 [15]
00000000: 168c 793f 22de 763f 22d5 803f 7e05 863f
00000010: 89e5 783f 048b 873f 4f46 6e3f dc09 7c3f
00000020: d593 6b3f 7453 803f de7a 7e3f 164c 663f
00000030: b44e 803f c138 723f aee4 703f
0.9747938 0.964327 1.0065043 1.0470426 0.9722524 1.0589299 0.9307603 0.98452544
0.9202245 1.0025468 0.9940623 0.8995985 1.0024018 0.9461785 0.9409894

transformer.norm1.bias f4 [15]
00000000: 97fc 3b3b 6a2f e0bc 3228 3dbc c1c9 483b
00000010: 43e2 253c 1627 85bc 580b 173d 95b0 013d
00000020: 07a7 e03c c363 963c 0bd1 613c b1b0 a43c
00000030: 05bc 00bb 595f c43c 3095 c43c
0.002868449 -0.027366359 -0.011545228 0.0030637833 0.010124746 -0.01625399 0.036876053 0.031662542
0.027423395 0.018358117 0.01378275 0.020103784 -0.0019643318 0.023971247 0.02399692

transformer.norm2.weight f4 [15]
00000000: 00fa b93f ad80 c93f 8116 c63f 212d a93f
00000010: 3797 b93f 70b8 b73f 3c98 a53f e6bf ae3f
00000020: 1e31 aa3f 546a af3f e8a9 b13f 6686 7a3f
00000030: b865 b43f 0a9e bc3f 98d7 b73f
1.4529419 1.5742394 1.5475618 1.3216897 1.4499272 1.4353161 1.2937083 1.3652313
1.3296239 1.3704324 1.3879976 0.97861326 1.4093542 1.473573 1.4362669

transformer.norm2.bias f4 [15]
00000000: eff5 2f3d ea0f c7bd 2157 473d ec25 2cbd
00000010: 55eb b4bd 33c5 1e3d 223a 8d3d 826a 9c3d
00000020: f374 883d 7f42 dcbc 1fff a0bd 2493 4fbd
00000030: a4ff 9a3d b935 213d f000 2ebd
0.04295915 -0.09719832 0.048667077 -0.042028353 -0.088339485 0.038762283 0.068958536 0.07637502
0.06662931 -0.026887177 -0.078611605 -0.050677434 0.07568291 0.039357875 -0.042481363
